{"format": "graph-model", "generatedBy": "1.15.5", "convertedBy": "TensorFlow.js Converter v3.4.0", "signature": {"inputs": {"sr_input:0": {"name": "sr_input:0", "dtype": "DT_FLOAT", "tensorShape": {"dim": [{"size": "-1"}, {"size": "3"}, {"size": "-1"}, {"size": "-1"}]}}}, "outputs": {"sr_output:0": {"name": "sr_output:0", "dtype": "DT_FLOAT", "tensorShape": {"dim": [{"size": "-1"}, {"size": "3"}, {"size": "-1"}, {"size": "-1"}]}}}}, "modelTopology": {"node": [{"name": "upsample.up2.body.20.4766618204419172E/ExpandDims/dim", "op": "Const", "attr": {"dtype": {"type": "DT_INT32"}, "value": {"tensor": {"dtype": "DT_INT32", "tensorShape": {}}}}}, {"name": "upsample.up2.body.20.8571187596648581E/ExpandDims/dim", "op": "Const", "attr": {"value": {"tensor": {"dtype": "DT_INT32", "tensorShape": {}}}, "dtype": {"type": "DT_INT32"}}}, {"name": "ConstantFolding/upsample.up2.body.20.04234313709622339/concat_partial_split_2", "op": "Const", "attr": {"value": {"tensor": {"dtype": "DT_INT32", "tensorShape": {"dim": [{"size": "2"}]}}}, "dtype": {"type": "DT_INT32"}}}, {"name": "upsample.up2.body.20.350880110526133E/ExpandDims/dim", "op": "Const", "attr": {"dtype": {"type": "DT_INT32"}, "value": {"tensor": {"dtype": "DT_INT32", "tensorShape": {}}}}}, {"name": "upsample.up2.body.20.12190041661671691E/ExpandDims/dim", "op": "Const", "attr": {"dtype": {"type": "DT_INT32"}, "value": {"tensor": {"dtype": "DT_INT32", "tensorShape": {}}}}}, {"name": "upsample.up2.body.20.04234313709622339/concat/axis", "op": "Const", "attr": {"dtype": {"type": "DT_INT32"}, "value": {"tensor": {"dtype": "DT_INT32", "tensorShape": {}}}}}, {"name": "upsample.up2.body.20.052715441586288714/transpose/perm", "op": "Const", "attr": {"dtype": {"type": "DT_INT32"}, "value": {"tensor": {"dtype": "DT_INT32", "tensorShape": {"dim": [{"size": "6"}]}}}}}, {"name": "lambda_2/strided_slice/stack", "op": "Const", "attr": {"value": {"tensor": {"dtype": "DT_INT32", "tensorShape": {"dim": [{"size": "1"}]}}}, "dtype": {"type": "DT_INT32"}}}, {"name": "lambda_2/strided_slice/stack_1", "op": "Const", "attr": {"value": {"tensor": {"dtype": "DT_INT32", "tensorShape": {"dim": [{"size": "1"}]}}}, "dtype": {"type": "DT_INT32"}}}, {"name": "lambda_2/strided_slice/stack_2", "op": "Const", "attr": {"value": {"tensor": {"dtype": "DT_INT32", "tensorShape": {"dim": [{"size": "1"}]}}}, "dtype": {"type": "DT_INT32"}}}, {"name": "upsample.up2.body.20.7554306878451601E/ExpandDims/dim", "op": "Const", "attr": {"value": {"tensor": {"dtype": "DT_INT32", "tensorShape": {}}}, "dtype": {"type": "DT_INT32"}}}, {"name": "lambda_5/strided_slice/stack", "op": "Const", "attr": {"dtype": {"type": "DT_INT32"}, "value": {"tensor": {"dtype": "DT_INT32", "tensorShape": {"dim": [{"size": "1"}]}}}}}, {"name": "lambda_5/strided_slice/stack_1", "op": "Const", "attr": {"dtype": {"type": "DT_INT32"}, "value": {"tensor": {"dtype": "DT_INT32", "tensorShape": {"dim": [{"size": "1"}]}}}}}, {"name": "lambda_5/strided_slice/stack_2", "op": "Const", "attr": {"value": {"tensor": {"dtype": "DT_INT32", "tensorShape": {"dim": [{"size": "1"}]}}}, "dtype": {"type": "DT_INT32"}}}, {"name": "lambda_13/Const", "op": "Const", "attr": {"value": {"tensor": {"dtype": "DT_INT32", "tensorShape": {}}}, "dtype": {"type": "DT_INT32"}}}, {"name": "upsample.up2.body.20.07153664925914338E/ExpandDims/dim", "op": "Const", "attr": {"dtype": {"type": "DT_INT32"}, "value": {"tensor": {"dtype": "DT_INT32", "tensorShape": {}}}}}, {"name": "lambda_8/strided_slice/stack", "op": "Const", "attr": {"dtype": {"type": "DT_INT32"}, "value": {"tensor": {"dtype": "DT_INT32", "tensorShape": {"dim": [{"size": "1"}]}}}}}, {"name": "lambda_8/strided_slice/stack_1", "op": "Const", "attr": {"value": {"tensor": {"dtype": "DT_INT32", "tensorShape": {"dim": [{"size": "1"}]}}}, "dtype": {"type": "DT_INT32"}}}, {"name": "lambda_8/strided_slice/stack_2", "op": "Const", "attr": {"dtype": {"type": "DT_INT32"}, "value": {"tensor": {"dtype": "DT_INT32", "tensorShape": {"dim": [{"size": "1"}]}}}}}, {"name": "lambda_14/Const", "op": "Const", "attr": {"dtype": {"type": "DT_INT32"}, "value": {"tensor": {"dtype": "DT_INT32", "tensorShape": {}}}}}, {"name": "upsample.up2.body.20.6008254443567683E/ExpandDims/dim", "op": "Const", "attr": {"value": {"tensor": {"dtype": "DT_INT32", "tensorShape": {}}}, "dtype": {"type": "DT_INT32"}}}, {"name": "b3.b3.body.00.00453979460767695_pad/Pad/paddings", "op": "Const", "attr": {"value": {"tensor": {"dtype": "DT_INT32", "tensorShape": {"dim": [{"size": "4"}, {"size": "2"}]}}}, "dtype": {"type": "DT_INT32"}}}, {"name": "b3.b3.body.00.00453979460767695/transpose/perm", "op": "Const", "attr": {"dtype": {"type": "DT_INT32"}, "value": {"tensor": {"dtype": "DT_INT32", "tensorShape": {"dim": [{"size": "4"}]}}}}}, {"name": "b3.b3.body.00.00453979460767695/kernel", "op": "Const", "attr": {"dtype": {"type": "DT_FLOAT"}, "value": {"tensor": {"dtype": "DT_FLOAT", "tensorShape": {"dim": [{"size": "3"}, {"size": "3"}, {"size": "64"}, {"size": "64"}]}}}}}, {"name": "b3.b3.body.00.00453979460767695/transpose_1/perm", "op": "Const", "attr": {"dtype": {"type": "DT_INT32"}, "value": {"tensor": {"dtype": "DT_INT32", "tensorShape": {"dim": [{"size": "4"}]}}}}}, {"name": "b3.b3.body.00.00453979460767695/Reshape", "op": "Const", "attr": {"value": {"tensor": {"dtype": "DT_FLOAT", "tensorShape": {"dim": [{"size": "1"}, {"size": "64"}, {"size": "1"}, {"size": "1"}]}}}, "dtype": {"type": "DT_FLOAT"}}}, {"name": "b3.b3.body.20.25827230769909626_pad/Pad/paddings", "op": "Const", "attr": {"value": {"tensor": {"dtype": "DT_INT32", "tensorShape": {"dim": [{"size": "4"}, {"size": "2"}]}}}, "dtype": {"type": "DT_INT32"}}}, {"name": "b3.b3.body.20.25827230769909626/transpose/perm", "op": "Const", "attr": {"value": {"tensor": {"dtype": "DT_INT32", "tensorShape": {"dim": [{"size": "4"}]}}}, "dtype": {"type": "DT_INT32"}}}, {"name": "b3.b3.body.20.25827230769909626/kernel", "op": "Const", "attr": {"dtype": {"type": "DT_FLOAT"}, "value": {"tensor": {"dtype": "DT_FLOAT", "tensorShape": {"dim": [{"size": "3"}, {"size": "3"}, {"size": "64"}, {"size": "64"}]}}}}}, {"name": "b3.b3.body.20.25827230769909626/transpose_1/perm", "op": "Const", "attr": {"dtype": {"type": "DT_INT32"}, "value": {"tensor": {"dtype": "DT_INT32", "tensorShape": {"dim": [{"size": "4"}]}}}}}, {"name": "b3.b3.body.20.25827230769909626/Reshape", "op": "Const", "attr": {"value": {"tensor": {"dtype": "DT_FLOAT", "tensorShape": {"dim": [{"size": "1"}, {"size": "64"}, {"size": "1"}, {"size": "1"}]}}}, "dtype": {"type": "DT_FLOAT"}}}, {"name": "b3.b2.body.00.41845981387910525_pad/Pad/paddings", "op": "Const", "attr": {"value": {"tensor": {"dtype": "DT_INT32", "tensorShape": {"dim": [{"size": "4"}, {"size": "2"}]}}}, "dtype": {"type": "DT_INT32"}}}, {"name": "b3.b2.body.00.41845981387910525/transpose/perm", "op": "Const", "attr": {"dtype": {"type": "DT_INT32"}, "value": {"tensor": {"dtype": "DT_INT32", "tensorShape": {"dim": [{"size": "4"}]}}}}}, {"name": "b3.b2.body.00.41845981387910525/kernel", "op": "Const", "attr": {"value": {"tensor": {"dtype": "DT_FLOAT", "tensorShape": {"dim": [{"size": "3"}, {"size": "3"}, {"size": "64"}, {"size": "64"}]}}}, "dtype": {"type": "DT_FLOAT"}}}, {"name": "b3.b2.body.00.41845981387910525/transpose_1/perm", "op": "Const", "attr": {"dtype": {"type": "DT_INT32"}, "value": {"tensor": {"dtype": "DT_INT32", "tensorShape": {"dim": [{"size": "4"}]}}}}}, {"name": "b3.b2.body.00.41845981387910525/Reshape", "op": "Const", "attr": {"value": {"tensor": {"dtype": "DT_FLOAT", "tensorShape": {"dim": [{"size": "1"}, {"size": "64"}, {"size": "1"}, {"size": "1"}]}}}, "dtype": {"type": "DT_FLOAT"}}}, {"name": "b3.b2.body.20.5348977462763576_pad/Pad/paddings", "op": "Const", "attr": {"value": {"tensor": {"dtype": "DT_INT32", "tensorShape": {"dim": [{"size": "4"}, {"size": "2"}]}}}, "dtype": {"type": "DT_INT32"}}}, {"name": "b3.b2.body.20.5348977462763576/transpose/perm", "op": "Const", "attr": {"dtype": {"type": "DT_INT32"}, "value": {"tensor": {"dtype": "DT_INT32", "tensorShape": {"dim": [{"size": "4"}]}}}}}, {"name": "b3.b2.body.20.5348977462763576/kernel", "op": "Const", "attr": {"dtype": {"type": "DT_FLOAT"}, "value": {"tensor": {"dtype": "DT_FLOAT", "tensorShape": {"dim": [{"size": "3"}, {"size": "3"}, {"size": "64"}, {"size": "64"}]}}}}}, {"name": "b3.b2.body.20.5348977462763576/transpose_1/perm", "op": "Const", "attr": {"value": {"tensor": {"dtype": "DT_INT32", "tensorShape": {"dim": [{"size": "4"}]}}}, "dtype": {"type": "DT_INT32"}}}, {"name": "b3.b2.body.20.5348977462763576/Reshape", "op": "Const", "attr": {"value": {"tensor": {"dtype": "DT_FLOAT", "tensorShape": {"dim": [{"size": "1"}, {"size": "64"}, {"size": "1"}, {"size": "1"}]}}}, "dtype": {"type": "DT_FLOAT"}}}, {"name": "b3.b1.body.00.722057533379368_pad/Pad/paddings", "op": "Const", "attr": {"dtype": {"type": "DT_INT32"}, "value": {"tensor": {"dtype": "DT_INT32", "tensorShape": {"dim": [{"size": "4"}, {"size": "2"}]}}}}}, {"name": "b3.b1.body.00.722057533379368/transpose/perm", "op": "Const", "attr": {"dtype": {"type": "DT_INT32"}, "value": {"tensor": {"dtype": "DT_INT32", "tensorShape": {"dim": [{"size": "4"}]}}}}}, {"name": "b3.b1.body.00.722057533379368/kernel", "op": "Const", "attr": {"value": {"tensor": {"dtype": "DT_FLOAT", "tensorShape": {"dim": [{"size": "3"}, {"size": "3"}, {"size": "64"}, {"size": "64"}]}}}, "dtype": {"type": "DT_FLOAT"}}}, {"name": "b3.b1.body.00.722057533379368/transpose_1/perm", "op": "Const", "attr": {"dtype": {"type": "DT_INT32"}, "value": {"tensor": {"dtype": "DT_INT32", "tensorShape": {"dim": [{"size": "4"}]}}}}}, {"name": "b3.b1.body.00.722057533379368/Reshape", "op": "Const", "attr": {"value": {"tensor": {"dtype": "DT_FLOAT", "tensorShape": {"dim": [{"size": "1"}, {"size": "64"}, {"size": "1"}, {"size": "1"}]}}}, "dtype": {"type": "DT_FLOAT"}}}, {"name": "b3.b1.body.20.24778832179532195_pad/Pad/paddings", "op": "Const", "attr": {"value": {"tensor": {"dtype": "DT_INT32", "tensorShape": {"dim": [{"size": "4"}, {"size": "2"}]}}}, "dtype": {"type": "DT_INT32"}}}, {"name": "b3.b1.body.20.24778832179532195/transpose/perm", "op": "Const", "attr": {"dtype": {"type": "DT_INT32"}, "value": {"tensor": {"dtype": "DT_INT32", "tensorShape": {"dim": [{"size": "4"}]}}}}}, {"name": "b3.b1.body.20.24778832179532195/kernel", "op": "Const", "attr": {"value": {"tensor": {"dtype": "DT_FLOAT", "tensorShape": {"dim": [{"size": "3"}, {"size": "3"}, {"size": "64"}, {"size": "64"}]}}}, "dtype": {"type": "DT_FLOAT"}}}, {"name": "b3.b1.body.20.24778832179532195/transpose_1/perm", "op": "Const", "attr": {"dtype": {"type": "DT_INT32"}, "value": {"tensor": {"dtype": "DT_INT32", "tensorShape": {"dim": [{"size": "4"}]}}}}}, {"name": "b3.b1.body.20.24778832179532195/Reshape", "op": "Const", "attr": {"dtype": {"type": "DT_FLOAT"}, "value": {"tensor": {"dtype": "DT_FLOAT", "tensorShape": {"dim": [{"size": "1"}, {"size": "64"}, {"size": "1"}, {"size": "1"}]}}}}}, {"name": "b2.b3.body.00.006913251005958965_pad/Pad/paddings", "op": "Const", "attr": {"dtype": {"type": "DT_INT32"}, "value": {"tensor": {"dtype": "DT_INT32", "tensorShape": {"dim": [{"size": "4"}, {"size": "2"}]}}}}}, {"name": "b2.b3.body.00.006913251005958965/transpose/perm", "op": "Const", "attr": {"value": {"tensor": {"dtype": "DT_INT32", "tensorShape": {"dim": [{"size": "4"}]}}}, "dtype": {"type": "DT_INT32"}}}, {"name": "b2.b3.body.00.006913251005958965/kernel", "op": "Const", "attr": {"dtype": {"type": "DT_FLOAT"}, "value": {"tensor": {"dtype": "DT_FLOAT", "tensorShape": {"dim": [{"size": "3"}, {"size": "3"}, {"size": "64"}, {"size": "64"}]}}}}}, {"name": "b2.b3.body.00.006913251005958965/transpose_1/perm", "op": "Const", "attr": {"dtype": {"type": "DT_INT32"}, "value": {"tensor": {"dtype": "DT_INT32", "tensorShape": {"dim": [{"size": "4"}]}}}}}, {"name": "b2.b3.body.00.006913251005958965/Reshape", "op": "Const", "attr": {"value": {"tensor": {"dtype": "DT_FLOAT", "tensorShape": {"dim": [{"size": "1"}, {"size": "64"}, {"size": "1"}, {"size": "1"}]}}}, "dtype": {"type": "DT_FLOAT"}}}, {"name": "b2.b3.body.20.6037477351947089_pad/Pad/paddings", "op": "Const", "attr": {"value": {"tensor": {"dtype": "DT_INT32", "tensorShape": {"dim": [{"size": "4"}, {"size": "2"}]}}}, "dtype": {"type": "DT_INT32"}}}, {"name": "b2.b3.body.20.6037477351947089/transpose/perm", "op": "Const", "attr": {"value": {"tensor": {"dtype": "DT_INT32", "tensorShape": {"dim": [{"size": "4"}]}}}, "dtype": {"type": "DT_INT32"}}}, {"name": "b2.b3.body.20.6037477351947089/kernel", "op": "Const", "attr": {"dtype": {"type": "DT_FLOAT"}, "value": {"tensor": {"dtype": "DT_FLOAT", "tensorShape": {"dim": [{"size": "3"}, {"size": "3"}, {"size": "64"}, {"size": "64"}]}}}}}, {"name": "b2.b3.body.20.6037477351947089/transpose_1/perm", "op": "Const", "attr": {"value": {"tensor": {"dtype": "DT_INT32", "tensorShape": {"dim": [{"size": "4"}]}}}, "dtype": {"type": "DT_INT32"}}}, {"name": "b2.b3.body.20.6037477351947089/Reshape", "op": "Const", "attr": {"value": {"tensor": {"dtype": "DT_FLOAT", "tensorShape": {"dim": [{"size": "1"}, {"size": "64"}, {"size": "1"}, {"size": "1"}]}}}, "dtype": {"type": "DT_FLOAT"}}}, {"name": "b2.b2.body.00.8514351312591644_pad/Pad/paddings", "op": "Const", "attr": {"dtype": {"type": "DT_INT32"}, "value": {"tensor": {"dtype": "DT_INT32", "tensorShape": {"dim": [{"size": "4"}, {"size": "2"}]}}}}}, {"name": "b2.b2.body.00.8514351312591644/transpose/perm", "op": "Const", "attr": {"dtype": {"type": "DT_INT32"}, "value": {"tensor": {"dtype": "DT_INT32", "tensorShape": {"dim": [{"size": "4"}]}}}}}, {"name": "b2.b2.body.00.8514351312591644/kernel", "op": "Const", "attr": {"value": {"tensor": {"dtype": "DT_FLOAT", "tensorShape": {"dim": [{"size": "3"}, {"size": "3"}, {"size": "64"}, {"size": "64"}]}}}, "dtype": {"type": "DT_FLOAT"}}}, {"name": "b2.b2.body.00.8514351312591644/transpose_1/perm", "op": "Const", "attr": {"value": {"tensor": {"dtype": "DT_INT32", "tensorShape": {"dim": [{"size": "4"}]}}}, "dtype": {"type": "DT_INT32"}}}, {"name": "b2.b2.body.00.8514351312591644/Reshape", "op": "Const", "attr": {"dtype": {"type": "DT_FLOAT"}, "value": {"tensor": {"dtype": "DT_FLOAT", "tensorShape": {"dim": [{"size": "1"}, {"size": "64"}, {"size": "1"}, {"size": "1"}]}}}}}, {"name": "b2.b2.body.20.7594478019234668_pad/Pad/paddings", "op": "Const", "attr": {"value": {"tensor": {"dtype": "DT_INT32", "tensorShape": {"dim": [{"size": "4"}, {"size": "2"}]}}}, "dtype": {"type": "DT_INT32"}}}, {"name": "b2.b2.body.20.7594478019234668/transpose/perm", "op": "Const", "attr": {"value": {"tensor": {"dtype": "DT_INT32", "tensorShape": {"dim": [{"size": "4"}]}}}, "dtype": {"type": "DT_INT32"}}}, {"name": "b2.b2.body.20.7594478019234668/kernel", "op": "Const", "attr": {"dtype": {"type": "DT_FLOAT"}, "value": {"tensor": {"dtype": "DT_FLOAT", "tensorShape": {"dim": [{"size": "3"}, {"size": "3"}, {"size": "64"}, {"size": "64"}]}}}}}, {"name": "b2.b2.body.20.7594478019234668/transpose_1/perm", "op": "Const", "attr": {"dtype": {"type": "DT_INT32"}, "value": {"tensor": {"dtype": "DT_INT32", "tensorShape": {"dim": [{"size": "4"}]}}}}}, {"name": "b2.b2.body.20.7594478019234668/Reshape", "op": "Const", "attr": {"value": {"tensor": {"dtype": "DT_FLOAT", "tensorShape": {"dim": [{"size": "1"}, {"size": "64"}, {"size": "1"}, {"size": "1"}]}}}, "dtype": {"type": "DT_FLOAT"}}}, {"name": "b2.b1.body.00.3346376479106308_pad/Pad/paddings", "op": "Const", "attr": {"value": {"tensor": {"dtype": "DT_INT32", "tensorShape": {"dim": [{"size": "4"}, {"size": "2"}]}}}, "dtype": {"type": "DT_INT32"}}}, {"name": "b2.b1.body.00.3346376479106308/transpose/perm", "op": "Const", "attr": {"value": {"tensor": {"dtype": "DT_INT32", "tensorShape": {"dim": [{"size": "4"}]}}}, "dtype": {"type": "DT_INT32"}}}, {"name": "b2.b1.body.00.3346376479106308/kernel", "op": "Const", "attr": {"value": {"tensor": {"dtype": "DT_FLOAT", "tensorShape": {"dim": [{"size": "3"}, {"size": "3"}, {"size": "64"}, {"size": "64"}]}}}, "dtype": {"type": "DT_FLOAT"}}}, {"name": "b2.b1.body.00.3346376479106308/transpose_1/perm", "op": "Const", "attr": {"value": {"tensor": {"dtype": "DT_INT32", "tensorShape": {"dim": [{"size": "4"}]}}}, "dtype": {"type": "DT_INT32"}}}, {"name": "b2.b1.body.00.3346376479106308/Reshape", "op": "Const", "attr": {"dtype": {"type": "DT_FLOAT"}, "value": {"tensor": {"dtype": "DT_FLOAT", "tensorShape": {"dim": [{"size": "1"}, {"size": "64"}, {"size": "1"}, {"size": "1"}]}}}}}, {"name": "b2.b1.body.20.054997286777011656_pad/Pad/paddings", "op": "Const", "attr": {"value": {"tensor": {"dtype": "DT_INT32", "tensorShape": {"dim": [{"size": "4"}, {"size": "2"}]}}}, "dtype": {"type": "DT_INT32"}}}, {"name": "b2.b1.body.20.054997286777011656/transpose/perm", "op": "Const", "attr": {"value": {"tensor": {"dtype": "DT_INT32", "tensorShape": {"dim": [{"size": "4"}]}}}, "dtype": {"type": "DT_INT32"}}}, {"name": "b2.b1.body.20.054997286777011656/kernel", "op": "Const", "attr": {"value": {"tensor": {"dtype": "DT_FLOAT", "tensorShape": {"dim": [{"size": "3"}, {"size": "3"}, {"size": "64"}, {"size": "64"}]}}}, "dtype": {"type": "DT_FLOAT"}}}, {"name": "b2.b1.body.20.054997286777011656/transpose_1/perm", "op": "Const", "attr": {"value": {"tensor": {"dtype": "DT_INT32", "tensorShape": {"dim": [{"size": "4"}]}}}, "dtype": {"type": "DT_INT32"}}}, {"name": "b2.b1.body.20.054997286777011656/Reshape", "op": "Const", "attr": {"dtype": {"type": "DT_FLOAT"}, "value": {"tensor": {"dtype": "DT_FLOAT", "tensorShape": {"dim": [{"size": "1"}, {"size": "64"}, {"size": "1"}, {"size": "1"}]}}}}}, {"name": "b1.b3.body.00.45651423535683444_pad/Pad/paddings", "op": "Const", "attr": {"dtype": {"type": "DT_INT32"}, "value": {"tensor": {"dtype": "DT_INT32", "tensorShape": {"dim": [{"size": "4"}, {"size": "2"}]}}}}}, {"name": "b1.b3.body.00.45651423535683444/transpose/perm", "op": "Const", "attr": {"value": {"tensor": {"dtype": "DT_INT32", "tensorShape": {"dim": [{"size": "4"}]}}}, "dtype": {"type": "DT_INT32"}}}, {"name": "b1.b3.body.00.45651423535683444/kernel", "op": "Const", "attr": {"value": {"tensor": {"dtype": "DT_FLOAT", "tensorShape": {"dim": [{"size": "3"}, {"size": "3"}, {"size": "64"}, {"size": "64"}]}}}, "dtype": {"type": "DT_FLOAT"}}}, {"name": "b1.b3.body.00.45651423535683444/transpose_1/perm", "op": "Const", "attr": {"value": {"tensor": {"dtype": "DT_INT32", "tensorShape": {"dim": [{"size": "4"}]}}}, "dtype": {"type": "DT_INT32"}}}, {"name": "b1.b3.body.00.45651423535683444/Reshape", "op": "Const", "attr": {"value": {"tensor": {"dtype": "DT_FLOAT", "tensorShape": {"dim": [{"size": "1"}, {"size": "64"}, {"size": "1"}, {"size": "1"}]}}}, "dtype": {"type": "DT_FLOAT"}}}, {"name": "b1.b3.body.20.73753430170241_pad/Pad/paddings", "op": "Const", "attr": {"dtype": {"type": "DT_INT32"}, "value": {"tensor": {"dtype": "DT_INT32", "tensorShape": {"dim": [{"size": "4"}, {"size": "2"}]}}}}}, {"name": "b1.b3.body.20.73753430170241/transpose/perm", "op": "Const", "attr": {"value": {"tensor": {"dtype": "DT_INT32", "tensorShape": {"dim": [{"size": "4"}]}}}, "dtype": {"type": "DT_INT32"}}}, {"name": "b1.b3.body.20.73753430170241/kernel", "op": "Const", "attr": {"value": {"tensor": {"dtype": "DT_FLOAT", "tensorShape": {"dim": [{"size": "3"}, {"size": "3"}, {"size": "64"}, {"size": "64"}]}}}, "dtype": {"type": "DT_FLOAT"}}}, {"name": "b1.b3.body.20.73753430170241/transpose_1/perm", "op": "Const", "attr": {"value": {"tensor": {"dtype": "DT_INT32", "tensorShape": {"dim": [{"size": "4"}]}}}, "dtype": {"type": "DT_INT32"}}}, {"name": "b1.b3.body.20.73753430170241/Reshape", "op": "Const", "attr": {"dtype": {"type": "DT_FLOAT"}, "value": {"tensor": {"dtype": "DT_FLOAT", "tensorShape": {"dim": [{"size": "1"}, {"size": "64"}, {"size": "1"}, {"size": "1"}]}}}}}, {"name": "b1.b2.body.00.6520323299054688_pad/Pad/paddings", "op": "Const", "attr": {"value": {"tensor": {"dtype": "DT_INT32", "tensorShape": {"dim": [{"size": "4"}, {"size": "2"}]}}}, "dtype": {"type": "DT_INT32"}}}, {"name": "b1.b2.body.00.6520323299054688/transpose/perm", "op": "Const", "attr": {"dtype": {"type": "DT_INT32"}, "value": {"tensor": {"dtype": "DT_INT32", "tensorShape": {"dim": [{"size": "4"}]}}}}}, {"name": "b1.b2.body.00.6520323299054688/kernel", "op": "Const", "attr": {"dtype": {"type": "DT_FLOAT"}, "value": {"tensor": {"dtype": "DT_FLOAT", "tensorShape": {"dim": [{"size": "3"}, {"size": "3"}, {"size": "64"}, {"size": "64"}]}}}}}, {"name": "b1.b2.body.00.6520323299054688/transpose_1/perm", "op": "Const", "attr": {"value": {"tensor": {"dtype": "DT_INT32", "tensorShape": {"dim": [{"size": "4"}]}}}, "dtype": {"type": "DT_INT32"}}}, {"name": "b1.b2.body.00.6520323299054688/Reshape", "op": "Const", "attr": {"dtype": {"type": "DT_FLOAT"}, "value": {"tensor": {"dtype": "DT_FLOAT", "tensorShape": {"dim": [{"size": "1"}, {"size": "64"}, {"size": "1"}, {"size": "1"}]}}}}}, {"name": "b1.b2.body.20.3078011901505564_pad/Pad/paddings", "op": "Const", "attr": {"value": {"tensor": {"dtype": "DT_INT32", "tensorShape": {"dim": [{"size": "4"}, {"size": "2"}]}}}, "dtype": {"type": "DT_INT32"}}}, {"name": "b1.b2.body.20.3078011901505564/transpose/perm", "op": "Const", "attr": {"dtype": {"type": "DT_INT32"}, "value": {"tensor": {"dtype": "DT_INT32", "tensorShape": {"dim": [{"size": "4"}]}}}}}, {"name": "b1.b2.body.20.3078011901505564/kernel", "op": "Const", "attr": {"value": {"tensor": {"dtype": "DT_FLOAT", "tensorShape": {"dim": [{"size": "3"}, {"size": "3"}, {"size": "64"}, {"size": "64"}]}}}, "dtype": {"type": "DT_FLOAT"}}}, {"name": "b1.b2.body.20.3078011901505564/transpose_1/perm", "op": "Const", "attr": {"dtype": {"type": "DT_INT32"}, "value": {"tensor": {"dtype": "DT_INT32", "tensorShape": {"dim": [{"size": "4"}]}}}}}, {"name": "b1.b2.body.20.3078011901505564/Reshape", "op": "Const", "attr": {"value": {"tensor": {"dtype": "DT_FLOAT", "tensorShape": {"dim": [{"size": "1"}, {"size": "64"}, {"size": "1"}, {"size": "1"}]}}}, "dtype": {"type": "DT_FLOAT"}}}, {"name": "b1.b1.body.00.37783620027621834_pad/Pad/paddings", "op": "Const", "attr": {"value": {"tensor": {"dtype": "DT_INT32", "tensorShape": {"dim": [{"size": "4"}, {"size": "2"}]}}}, "dtype": {"type": "DT_INT32"}}}, {"name": "b1.b1.body.00.37783620027621834/transpose/perm", "op": "Const", "attr": {"value": {"tensor": {"dtype": "DT_INT32", "tensorShape": {"dim": [{"size": "4"}]}}}, "dtype": {"type": "DT_INT32"}}}, {"name": "b1.b1.body.00.37783620027621834/kernel", "op": "Const", "attr": {"dtype": {"type": "DT_FLOAT"}, "value": {"tensor": {"dtype": "DT_FLOAT", "tensorShape": {"dim": [{"size": "3"}, {"size": "3"}, {"size": "64"}, {"size": "64"}]}}}}}, {"name": "b1.b1.body.00.37783620027621834/transpose_1/perm", "op": "Const", "attr": {"dtype": {"type": "DT_INT32"}, "value": {"tensor": {"dtype": "DT_INT32", "tensorShape": {"dim": [{"size": "4"}]}}}}}, {"name": "b1.b1.body.00.37783620027621834/Reshape", "op": "Const", "attr": {"value": {"tensor": {"dtype": "DT_FLOAT", "tensorShape": {"dim": [{"size": "1"}, {"size": "64"}, {"size": "1"}, {"size": "1"}]}}}, "dtype": {"type": "DT_FLOAT"}}}, {"name": "b1.b1.body.20.8783524404492908_pad/Pad/paddings", "op": "Const", "attr": {"value": {"tensor": {"dtype": "DT_INT32", "tensorShape": {"dim": [{"size": "4"}, {"size": "2"}]}}}, "dtype": {"type": "DT_INT32"}}}, {"name": "b1.b1.body.20.8783524404492908/transpose/perm", "op": "Const", "attr": {"value": {"tensor": {"dtype": "DT_INT32", "tensorShape": {"dim": [{"size": "4"}]}}}, "dtype": {"type": "DT_INT32"}}}, {"name": "b1.b1.body.20.8783524404492908/kernel", "op": "Const", "attr": {"dtype": {"type": "DT_FLOAT"}, "value": {"tensor": {"dtype": "DT_FLOAT", "tensorShape": {"dim": [{"size": "3"}, {"size": "3"}, {"size": "64"}, {"size": "64"}]}}}}}, {"name": "b1.b1.body.20.8783524404492908/transpose_1/perm", "op": "Const", "attr": {"value": {"tensor": {"dtype": "DT_INT32", "tensorShape": {"dim": [{"size": "4"}]}}}, "dtype": {"type": "DT_INT32"}}}, {"name": "b1.b1.body.20.8783524404492908/Reshape", "op": "Const", "attr": {"dtype": {"type": "DT_FLOAT"}, "value": {"tensor": {"dtype": "DT_FLOAT", "tensorShape": {"dim": [{"size": "1"}, {"size": "64"}, {"size": "1"}, {"size": "1"}]}}}}}, {"name": "sr_input", "op": "Placeholder", "attr": {"shape": {"shape": {"dim": [{"size": "-1"}, {"size": "3"}, {"size": "-1"}, {"size": "-1"}]}}, "dtype": {"type": "DT_FLOAT"}}}, {"name": "sub_mean.shifter0.6454831648344069/transpose/perm", "op": "Const", "attr": {"dtype": {"type": "DT_INT32"}, "value": {"tensor": {"dtype": "DT_INT32", "tensorShape": {"dim": [{"size": "4"}]}}}}}, {"name": "sub_mean.shifter0.6454831648344069/kernel", "op": "Const", "attr": {"value": {"tensor": {"dtype": "DT_FLOAT", "tensorShape": {"dim": [{"size": "1"}, {"size": "1"}, {"size": "3"}, {"size": "3"}]}}}, "dtype": {"type": "DT_FLOAT"}}}, {"name": "sub_mean.shifter0.6454831648344069/transpose_1/perm", "op": "Const", "attr": {"dtype": {"type": "DT_INT32"}, "value": {"tensor": {"dtype": "DT_INT32", "tensorShape": {"dim": [{"size": "4"}]}}}}}, {"name": "sub_mean.shifter0.6454831648344069/Reshape", "op": "Const", "attr": {"value": {"tensor": {"dtype": "DT_FLOAT", "tensorShape": {"dim": [{"size": "1"}, {"size": "3"}, {"size": "1"}, {"size": "1"}]}}}, "dtype": {"type": "DT_FLOAT"}}}, {"name": "entry0.7458910525432818_pad/Pad/paddings", "op": "Const", "attr": {"value": {"tensor": {"dtype": "DT_INT32", "tensorShape": {"dim": [{"size": "4"}, {"size": "2"}]}}}, "dtype": {"type": "DT_INT32"}}}, {"name": "entry0.7458910525432818/transpose/perm", "op": "Const", "attr": {"dtype": {"type": "DT_INT32"}, "value": {"tensor": {"dtype": "DT_INT32", "tensorShape": {"dim": [{"size": "4"}]}}}}}, {"name": "entry0.7458910525432818/kernel", "op": "Const", "attr": {"value": {"tensor": {"dtype": "DT_FLOAT", "tensorShape": {"dim": [{"size": "3"}, {"size": "3"}, {"size": "3"}, {"size": "64"}]}}}, "dtype": {"type": "DT_FLOAT"}}}, {"name": "entry0.7458910525432818/transpose_1/perm", "op": "Const", "attr": {"value": {"tensor": {"dtype": "DT_INT32", "tensorShape": {"dim": [{"size": "4"}]}}}, "dtype": {"type": "DT_INT32"}}}, {"name": "entry0.7458910525432818/Reshape", "op": "Const", "attr": {"value": {"tensor": {"dtype": "DT_FLOAT", "tensorShape": {"dim": [{"size": "1"}, {"size": "64"}, {"size": "1"}, {"size": "1"}]}}}, "dtype": {"type": "DT_FLOAT"}}}, {"name": "b10.7083292562416083/concat/axis", "op": "Const", "attr": {"dtype": {"type": "DT_INT32"}, "value": {"tensor": {"dtype": "DT_INT32", "tensorShape": {}}}}}, {"name": "b1.c1.body.00.8432475802897582/transpose/perm", "op": "Const", "attr": {"value": {"tensor": {"dtype": "DT_INT32", "tensorShape": {"dim": [{"size": "4"}]}}}, "dtype": {"type": "DT_INT32"}}}, {"name": "b1.c1.body.00.8432475802897582/kernel", "op": "Const", "attr": {"dtype": {"type": "DT_FLOAT"}, "value": {"tensor": {"dtype": "DT_FLOAT", "tensorShape": {"dim": [{"size": "1"}, {"size": "1"}, {"size": "128"}, {"size": "64"}]}}}}}, {"name": "b1.c1.body.00.8432475802897582/transpose_1/perm", "op": "Const", "attr": {"value": {"tensor": {"dtype": "DT_INT32", "tensorShape": {"dim": [{"size": "4"}]}}}, "dtype": {"type": "DT_INT32"}}}, {"name": "b1.c1.body.00.8432475802897582/Reshape", "op": "Const", "attr": {"value": {"tensor": {"dtype": "DT_FLOAT", "tensorShape": {"dim": [{"size": "1"}, {"size": "64"}, {"size": "1"}, {"size": "1"}]}}}, "dtype": {"type": "DT_FLOAT"}}}, {"name": "b10.3286765880998359/concat/axis", "op": "Const", "attr": {"dtype": {"type": "DT_INT32"}, "value": {"tensor": {"dtype": "DT_INT32", "tensorShape": {}}}}}, {"name": "b1.c2.body.00.43531056176473415/transpose/perm", "op": "Const", "attr": {"value": {"tensor": {"dtype": "DT_INT32", "tensorShape": {"dim": [{"size": "4"}]}}}, "dtype": {"type": "DT_INT32"}}}, {"name": "b1.c2.body.00.43531056176473415/kernel", "op": "Const", "attr": {"value": {"tensor": {"dtype": "DT_FLOAT", "tensorShape": {"dim": [{"size": "1"}, {"size": "1"}, {"size": "192"}, {"size": "64"}]}}}, "dtype": {"type": "DT_FLOAT"}}}, {"name": "b1.c2.body.00.43531056176473415/transpose_1/perm", "op": "Const", "attr": {"dtype": {"type": "DT_INT32"}, "value": {"tensor": {"dtype": "DT_INT32", "tensorShape": {"dim": [{"size": "4"}]}}}}}, {"name": "b1.c2.body.00.43531056176473415/Reshape", "op": "Const", "attr": {"dtype": {"type": "DT_FLOAT"}, "value": {"tensor": {"dtype": "DT_FLOAT", "tensorShape": {"dim": [{"size": "1"}, {"size": "64"}, {"size": "1"}, {"size": "1"}]}}}}}, {"name": "b10.1749208871883252/concat/axis", "op": "Const", "attr": {"dtype": {"type": "DT_INT32"}, "value": {"tensor": {"dtype": "DT_INT32", "tensorShape": {}}}}}, {"name": "b1.c3.body.00.8365417938204992/transpose/perm", "op": "Const", "attr": {"dtype": {"type": "DT_INT32"}, "value": {"tensor": {"dtype": "DT_INT32", "tensorShape": {"dim": [{"size": "4"}]}}}}}, {"name": "b1.c3.body.00.8365417938204992/kernel", "op": "Const", "attr": {"value": {"tensor": {"dtype": "DT_FLOAT", "tensorShape": {"dim": [{"size": "1"}, {"size": "1"}, {"size": "256"}, {"size": "64"}]}}}, "dtype": {"type": "DT_FLOAT"}}}, {"name": "b1.c3.body.00.8365417938204992/transpose_1/perm", "op": "Const", "attr": {"dtype": {"type": "DT_INT32"}, "value": {"tensor": {"dtype": "DT_INT32", "tensorShape": {"dim": [{"size": "4"}]}}}}}, {"name": "b1.c3.body.00.8365417938204992/Reshape", "op": "Const", "attr": {"dtype": {"type": "DT_FLOAT"}, "value": {"tensor": {"dtype": "DT_FLOAT", "tensorShape": {"dim": [{"size": "1"}, {"size": "64"}, {"size": "1"}, {"size": "1"}]}}}}}, {"name": "0.20046756351022732/concat/axis", "op": "Const", "attr": {"value": {"tensor": {"dtype": "DT_INT32", "tensorShape": {}}}, "dtype": {"type": "DT_INT32"}}}, {"name": "c1.body.00.7963751380351581/transpose/perm", "op": "Const", "attr": {"value": {"tensor": {"dtype": "DT_INT32", "tensorShape": {"dim": [{"size": "4"}]}}}, "dtype": {"type": "DT_INT32"}}}, {"name": "c1.body.00.7963751380351581/kernel", "op": "Const", "attr": {"dtype": {"type": "DT_FLOAT"}, "value": {"tensor": {"dtype": "DT_FLOAT", "tensorShape": {"dim": [{"size": "1"}, {"size": "1"}, {"size": "128"}, {"size": "64"}]}}}}}, {"name": "c1.body.00.7963751380351581/transpose_1/perm", "op": "Const", "attr": {"value": {"tensor": {"dtype": "DT_INT32", "tensorShape": {"dim": [{"size": "4"}]}}}, "dtype": {"type": "DT_INT32"}}}, {"name": "c1.body.00.7963751380351581/Reshape", "op": "Const", "attr": {"value": {"tensor": {"dtype": "DT_FLOAT", "tensorShape": {"dim": [{"size": "1"}, {"size": "64"}, {"size": "1"}, {"size": "1"}]}}}, "dtype": {"type": "DT_FLOAT"}}}, {"name": "b20.837860348277081/concat/axis", "op": "Const", "attr": {"dtype": {"type": "DT_INT32"}, "value": {"tensor": {"dtype": "DT_INT32", "tensorShape": {}}}}}, {"name": "b2.c1.body.00.7205965551871459/transpose/perm", "op": "Const", "attr": {"value": {"tensor": {"dtype": "DT_INT32", "tensorShape": {"dim": [{"size": "4"}]}}}, "dtype": {"type": "DT_INT32"}}}, {"name": "b2.c1.body.00.7205965551871459/kernel", "op": "Const", "attr": {"dtype": {"type": "DT_FLOAT"}, "value": {"tensor": {"dtype": "DT_FLOAT", "tensorShape": {"dim": [{"size": "1"}, {"size": "1"}, {"size": "128"}, {"size": "64"}]}}}}}, {"name": "b2.c1.body.00.7205965551871459/transpose_1/perm", "op": "Const", "attr": {"value": {"tensor": {"dtype": "DT_INT32", "tensorShape": {"dim": [{"size": "4"}]}}}, "dtype": {"type": "DT_INT32"}}}, {"name": "b2.c1.body.00.7205965551871459/Reshape", "op": "Const", "attr": {"dtype": {"type": "DT_FLOAT"}, "value": {"tensor": {"dtype": "DT_FLOAT", "tensorShape": {"dim": [{"size": "1"}, {"size": "64"}, {"size": "1"}, {"size": "1"}]}}}}}, {"name": "b20.30196614123700816/concat/axis", "op": "Const", "attr": {"dtype": {"type": "DT_INT32"}, "value": {"tensor": {"dtype": "DT_INT32", "tensorShape": {}}}}}, {"name": "b2.c2.body.00.02939658995719252/transpose/perm", "op": "Const", "attr": {"value": {"tensor": {"dtype": "DT_INT32", "tensorShape": {"dim": [{"size": "4"}]}}}, "dtype": {"type": "DT_INT32"}}}, {"name": "b2.c2.body.00.02939658995719252/kernel", "op": "Const", "attr": {"dtype": {"type": "DT_FLOAT"}, "value": {"tensor": {"dtype": "DT_FLOAT", "tensorShape": {"dim": [{"size": "1"}, {"size": "1"}, {"size": "192"}, {"size": "64"}]}}}}}, {"name": "b2.c2.body.00.02939658995719252/transpose_1/perm", "op": "Const", "attr": {"value": {"tensor": {"dtype": "DT_INT32", "tensorShape": {"dim": [{"size": "4"}]}}}, "dtype": {"type": "DT_INT32"}}}, {"name": "b2.c2.body.00.02939658995719252/Reshape", "op": "Const", "attr": {"value": {"tensor": {"dtype": "DT_FLOAT", "tensorShape": {"dim": [{"size": "1"}, {"size": "64"}, {"size": "1"}, {"size": "1"}]}}}, "dtype": {"type": "DT_FLOAT"}}}, {"name": "b20.760123869524291/concat/axis", "op": "Const", "attr": {"value": {"tensor": {"dtype": "DT_INT32", "tensorShape": {}}}, "dtype": {"type": "DT_INT32"}}}, {"name": "b2.c3.body.00.9144090871557516/transpose/perm", "op": "Const", "attr": {"dtype": {"type": "DT_INT32"}, "value": {"tensor": {"dtype": "DT_INT32", "tensorShape": {"dim": [{"size": "4"}]}}}}}, {"name": "b2.c3.body.00.9144090871557516/kernel", "op": "Const", "attr": {"value": {"tensor": {"dtype": "DT_FLOAT", "tensorShape": {"dim": [{"size": "1"}, {"size": "1"}, {"size": "256"}, {"size": "64"}]}}}, "dtype": {"type": "DT_FLOAT"}}}, {"name": "b2.c3.body.00.9144090871557516/transpose_1/perm", "op": "Const", "attr": {"value": {"tensor": {"dtype": "DT_INT32", "tensorShape": {"dim": [{"size": "4"}]}}}, "dtype": {"type": "DT_INT32"}}}, {"name": "b2.c3.body.00.9144090871557516/Reshape", "op": "Const", "attr": {"value": {"tensor": {"dtype": "DT_FLOAT", "tensorShape": {"dim": [{"size": "1"}, {"size": "64"}, {"size": "1"}, {"size": "1"}]}}}, "dtype": {"type": "DT_FLOAT"}}}, {"name": "0.745294373906827/concat/axis", "op": "Const", "attr": {"value": {"tensor": {"dtype": "DT_INT32", "tensorShape": {}}}, "dtype": {"type": "DT_INT32"}}}, {"name": "c2.body.00.0564468817451268/transpose/perm", "op": "Const", "attr": {"value": {"tensor": {"dtype": "DT_INT32", "tensorShape": {"dim": [{"size": "4"}]}}}, "dtype": {"type": "DT_INT32"}}}, {"name": "c2.body.00.0564468817451268/kernel", "op": "Const", "attr": {"value": {"tensor": {"dtype": "DT_FLOAT", "tensorShape": {"dim": [{"size": "1"}, {"size": "1"}, {"size": "192"}, {"size": "64"}]}}}, "dtype": {"type": "DT_FLOAT"}}}, {"name": "c2.body.00.0564468817451268/transpose_1/perm", "op": "Const", "attr": {"value": {"tensor": {"dtype": "DT_INT32", "tensorShape": {"dim": [{"size": "4"}]}}}, "dtype": {"type": "DT_INT32"}}}, {"name": "c2.body.00.0564468817451268/Reshape", "op": "Const", "attr": {"dtype": {"type": "DT_FLOAT"}, "value": {"tensor": {"dtype": "DT_FLOAT", "tensorShape": {"dim": [{"size": "1"}, {"size": "64"}, {"size": "1"}, {"size": "1"}]}}}}}, {"name": "b30.6695398700609871/concat/axis", "op": "Const", "attr": {"value": {"tensor": {"dtype": "DT_INT32", "tensorShape": {}}}, "dtype": {"type": "DT_INT32"}}}, {"name": "b3.c1.body.00.45140252646004053/transpose/perm", "op": "Const", "attr": {"value": {"tensor": {"dtype": "DT_INT32", "tensorShape": {"dim": [{"size": "4"}]}}}, "dtype": {"type": "DT_INT32"}}}, {"name": "b3.c1.body.00.45140252646004053/kernel", "op": "Const", "attr": {"dtype": {"type": "DT_FLOAT"}, "value": {"tensor": {"dtype": "DT_FLOAT", "tensorShape": {"dim": [{"size": "1"}, {"size": "1"}, {"size": "128"}, {"size": "64"}]}}}}}, {"name": "b3.c1.body.00.45140252646004053/transpose_1/perm", "op": "Const", "attr": {"dtype": {"type": "DT_INT32"}, "value": {"tensor": {"dtype": "DT_INT32", "tensorShape": {"dim": [{"size": "4"}]}}}}}, {"name": "b3.c1.body.00.45140252646004053/Reshape", "op": "Const", "attr": {"value": {"tensor": {"dtype": "DT_FLOAT", "tensorShape": {"dim": [{"size": "1"}, {"size": "64"}, {"size": "1"}, {"size": "1"}]}}}, "dtype": {"type": "DT_FLOAT"}}}, {"name": "b30.3351955311328446/concat/axis", "op": "Const", "attr": {"dtype": {"type": "DT_INT32"}, "value": {"tensor": {"dtype": "DT_INT32", "tensorShape": {}}}}}, {"name": "b3.c2.body.00.9516376326010488/transpose/perm", "op": "Const", "attr": {"dtype": {"type": "DT_INT32"}, "value": {"tensor": {"dtype": "DT_INT32", "tensorShape": {"dim": [{"size": "4"}]}}}}}, {"name": "b3.c2.body.00.9516376326010488/kernel", "op": "Const", "attr": {"dtype": {"type": "DT_FLOAT"}, "value": {"tensor": {"dtype": "DT_FLOAT", "tensorShape": {"dim": [{"size": "1"}, {"size": "1"}, {"size": "192"}, {"size": "64"}]}}}}}, {"name": "b3.c2.body.00.9516376326010488/transpose_1/perm", "op": "Const", "attr": {"value": {"tensor": {"dtype": "DT_INT32", "tensorShape": {"dim": [{"size": "4"}]}}}, "dtype": {"type": "DT_INT32"}}}, {"name": "b3.c2.body.00.9516376326010488/Reshape", "op": "Const", "attr": {"value": {"tensor": {"dtype": "DT_FLOAT", "tensorShape": {"dim": [{"size": "1"}, {"size": "64"}, {"size": "1"}, {"size": "1"}]}}}, "dtype": {"type": "DT_FLOAT"}}}, {"name": "b30.774364477137635/concat/axis", "op": "Const", "attr": {"value": {"tensor": {"dtype": "DT_INT32", "tensorShape": {}}}, "dtype": {"type": "DT_INT32"}}}, {"name": "b3.c3.body.00.2028034081180673/transpose/perm", "op": "Const", "attr": {"value": {"tensor": {"dtype": "DT_INT32", "tensorShape": {"dim": [{"size": "4"}]}}}, "dtype": {"type": "DT_INT32"}}}, {"name": "b3.c3.body.00.2028034081180673/kernel", "op": "Const", "attr": {"value": {"tensor": {"dtype": "DT_FLOAT", "tensorShape": {"dim": [{"size": "1"}, {"size": "1"}, {"size": "256"}, {"size": "64"}]}}}, "dtype": {"type": "DT_FLOAT"}}}, {"name": "b3.c3.body.00.2028034081180673/transpose_1/perm", "op": "Const", "attr": {"dtype": {"type": "DT_INT32"}, "value": {"tensor": {"dtype": "DT_INT32", "tensorShape": {"dim": [{"size": "4"}]}}}}}, {"name": "b3.c3.body.00.2028034081180673/Reshape", "op": "Const", "attr": {"value": {"tensor": {"dtype": "DT_FLOAT", "tensorShape": {"dim": [{"size": "1"}, {"size": "64"}, {"size": "1"}, {"size": "1"}]}}}, "dtype": {"type": "DT_FLOAT"}}}, {"name": "0.07523256857019289/concat/axis", "op": "Const", "attr": {"dtype": {"type": "DT_INT32"}, "value": {"tensor": {"dtype": "DT_INT32", "tensorShape": {}}}}}, {"name": "c3.body.00.04619909734415062/transpose/perm", "op": "Const", "attr": {"value": {"tensor": {"dtype": "DT_INT32", "tensorShape": {"dim": [{"size": "4"}]}}}, "dtype": {"type": "DT_INT32"}}}, {"name": "c3.body.00.04619909734415062/kernel", "op": "Const", "attr": {"dtype": {"type": "DT_FLOAT"}, "value": {"tensor": {"dtype": "DT_FLOAT", "tensorShape": {"dim": [{"size": "1"}, {"size": "1"}, {"size": "256"}, {"size": "64"}]}}}}}, {"name": "c3.body.00.04619909734415062/transpose_1/perm", "op": "Const", "attr": {"value": {"tensor": {"dtype": "DT_INT32", "tensorShape": {"dim": [{"size": "4"}]}}}, "dtype": {"type": "DT_INT32"}}}, {"name": "c3.body.00.04619909734415062/Reshape", "op": "Const", "attr": {"value": {"tensor": {"dtype": "DT_FLOAT", "tensorShape": {"dim": [{"size": "1"}, {"size": "64"}, {"size": "1"}, {"size": "1"}]}}}, "dtype": {"type": "DT_FLOAT"}}}, {"name": "upsample.up2.body.00.4599539711629431_pad/Pad/paddings", "op": "Const", "attr": {"value": {"tensor": {"dtype": "DT_INT32", "tensorShape": {"dim": [{"size": "4"}, {"size": "2"}]}}}, "dtype": {"type": "DT_INT32"}}}, {"name": "upsample.up2.body.00.4599539711629431/transpose/perm", "op": "Const", "attr": {"dtype": {"type": "DT_INT32"}, "value": {"tensor": {"dtype": "DT_INT32", "tensorShape": {"dim": [{"size": "4"}]}}}}}, {"name": "upsample.up2.body.00.4599539711629431/kernel", "op": "Const", "attr": {"value": {"tensor": {"dtype": "DT_FLOAT", "tensorShape": {"dim": [{"size": "3"}, {"size": "3"}, {"size": "64"}, {"size": "256"}]}}}, "dtype": {"type": "DT_FLOAT"}}}, {"name": "upsample.up2.body.00.4599539711629431/transpose_1/perm", "op": "Const", "attr": {"dtype": {"type": "DT_INT32"}, "value": {"tensor": {"dtype": "DT_INT32", "tensorShape": {"dim": [{"size": "4"}]}}}}}, {"name": "upsample.up2.body.00.4599539711629431/Reshape", "op": "Const", "attr": {"dtype": {"type": "DT_FLOAT"}, "value": {"tensor": {"dtype": "DT_FLOAT", "tensorShape": {"dim": [{"size": "1"}, {"size": "256"}, {"size": "1"}, {"size": "1"}]}}}}}, {"name": "lambda_11/strided_slice/stack", "op": "Const", "attr": {"dtype": {"type": "DT_INT32"}, "value": {"tensor": {"dtype": "DT_INT32", "tensorShape": {"dim": [{"size": "1"}]}}}}}, {"name": "lambda_11/strided_slice/stack_1", "op": "Const", "attr": {"dtype": {"type": "DT_INT32"}, "value": {"tensor": {"dtype": "DT_INT32", "tensorShape": {"dim": [{"size": "1"}]}}}}}, {"name": "lambda_11/strided_slice/stack_2", "op": "Const", "attr": {"value": {"tensor": {"dtype": "DT_INT32", "tensorShape": {"dim": [{"size": "1"}]}}}, "dtype": {"type": "DT_INT32"}}}, {"name": "lambda_15/Const", "op": "Const", "attr": {"value": {"tensor": {"dtype": "DT_INT32", "tensorShape": {}}}, "dtype": {"type": "DT_INT32"}}}, {"name": "upsample.up2.body.20.3303673637302097E/ExpandDims/dim", "op": "Const", "attr": {"dtype": {"type": "DT_INT32"}, "value": {"tensor": {"dtype": "DT_INT32", "tensorShape": {}}}}}, {"name": "upsample.up2.body.20.23829645161567448/concat/axis", "op": "Const", "attr": {"value": {"tensor": {"dtype": "DT_INT32", "tensorShape": {}}}, "dtype": {"type": "DT_INT32"}}}, {"name": "exit0.3884727939701078_pad/Pad/paddings", "op": "Const", "attr": {"value": {"tensor": {"dtype": "DT_INT32", "tensorShape": {"dim": [{"size": "4"}, {"size": "2"}]}}}, "dtype": {"type": "DT_INT32"}}}, {"name": "exit0.3884727939701078/transpose/perm", "op": "Const", "attr": {"dtype": {"type": "DT_INT32"}, "value": {"tensor": {"dtype": "DT_INT32", "tensorShape": {"dim": [{"size": "4"}]}}}}}, {"name": "exit0.3884727939701078/kernel", "op": "Const", "attr": {"dtype": {"type": "DT_FLOAT"}, "value": {"tensor": {"dtype": "DT_FLOAT", "tensorShape": {"dim": [{"size": "3"}, {"size": "3"}, {"size": "64"}, {"size": "3"}]}}}}}, {"name": "exit0.3884727939701078/transpose_1/perm", "op": "Const", "attr": {"value": {"tensor": {"dtype": "DT_INT32", "tensorShape": {"dim": [{"size": "4"}]}}}, "dtype": {"type": "DT_INT32"}}}, {"name": "exit0.3884727939701078/Reshape", "op": "Const", "attr": {"value": {"tensor": {"dtype": "DT_FLOAT", "tensorShape": {"dim": [{"size": "1"}, {"size": "3"}, {"size": "1"}, {"size": "1"}]}}}, "dtype": {"type": "DT_FLOAT"}}}, {"name": "add_mean.shifter0.8099212878749612/transpose/perm", "op": "Const", "attr": {"dtype": {"type": "DT_INT32"}, "value": {"tensor": {"dtype": "DT_INT32", "tensorShape": {"dim": [{"size": "4"}]}}}}}, {"name": "add_mean.shifter0.8099212878749612/kernel", "op": "Const", "attr": {"value": {"tensor": {"dtype": "DT_FLOAT", "tensorShape": {"dim": [{"size": "1"}, {"size": "1"}, {"size": "3"}, {"size": "3"}]}}}, "dtype": {"type": "DT_FLOAT"}}}, {"name": "add_mean.shifter0.8099212878749612/transpose_1/perm", "op": "Const", "attr": {"dtype": {"type": "DT_INT32"}, "value": {"tensor": {"dtype": "DT_INT32", "tensorShape": {"dim": [{"size": "4"}]}}}}}, {"name": "add_mean.shifter0.8099212878749612/Reshape", "op": "Const", "attr": {"value": {"tensor": {"dtype": "DT_FLOAT", "tensorShape": {"dim": [{"size": "1"}, {"size": "3"}, {"size": "1"}, {"size": "1"}]}}}, "dtype": {"type": "DT_FLOAT"}}}, {"name": "sub_mean.shifter0.6454831648344069/transpose", "op": "Transpose", "input": ["sr_input", "sub_mean.shifter0.6454831648344069/transpose/perm"], "attr": {"T": {"type": "DT_FLOAT"}, "Tperm": {"type": "DT_INT32"}}}, {"name": "sub_mean.shifter0.6454831648344069/convolution", "op": "Conv2D", "input": ["sub_mean.shifter0.6454831648344069/transpose", "sub_mean.shifter0.6454831648344069/kernel"], "device": "/device:CPU:0", "attr": {"strides": {"list": {"i": ["1", "1", "1", "1"]}}, "data_format": {"s": "TkhXQw=="}, "dilations": {"list": {"i": ["1", "1", "1", "1"]}}, "padding": {"s": "VkFMSUQ="}, "explicit_paddings": {"list": {}}, "use_cudnn_on_gpu": {"b": true}, "T": {"type": "DT_FLOAT"}}}, {"name": "sub_mean.shifter0.6454831648344069/transpose_1", "op": "Transpose", "input": ["sub_mean.shifter0.6454831648344069/convolution", "sub_mean.shifter0.6454831648344069/transpose_1/perm"], "attr": {"Tperm": {"type": "DT_INT32"}, "T": {"type": "DT_FLOAT"}}}, {"name": "sub_mean.shifter0.6454831648344069/add", "op": "Add", "input": ["sub_mean.shifter0.6454831648344069/transpose_1", "sub_mean.shifter0.6454831648344069/Reshape"], "attr": {"T": {"type": "DT_FLOAT"}}}, {"name": "entry0.7458910525432818_pad/Pad", "op": "Pad", "input": ["sub_mean.shifter0.6454831648344069/add", "entry0.7458910525432818_pad/Pad/paddings"], "attr": {"Tpaddings": {"type": "DT_INT32"}, "T": {"type": "DT_FLOAT"}}}, {"name": "entry0.7458910525432818/transpose", "op": "Transpose", "input": ["entry0.7458910525432818_pad/Pad", "entry0.7458910525432818/transpose/perm"], "attr": {"T": {"type": "DT_FLOAT"}, "Tperm": {"type": "DT_INT32"}}}, {"name": "entry0.7458910525432818/convolution", "op": "Conv2D", "input": ["entry0.7458910525432818/transpose", "entry0.7458910525432818/kernel"], "device": "/device:CPU:0", "attr": {"dilations": {"list": {"i": ["1", "1", "1", "1"]}}, "strides": {"list": {"i": ["1", "1", "1", "1"]}}, "data_format": {"s": "TkhXQw=="}, "use_cudnn_on_gpu": {"b": true}, "padding": {"s": "VkFMSUQ="}, "T": {"type": "DT_FLOAT"}, "explicit_paddings": {"list": {}}}}, {"name": "entry0.7458910525432818/transpose_1", "op": "Transpose", "input": ["entry0.7458910525432818/convolution", "entry0.7458910525432818/transpose_1/perm"], "attr": {"Tperm": {"type": "DT_INT32"}, "T": {"type": "DT_FLOAT"}}}, {"name": "entry0.7458910525432818/add", "op": "Add", "input": ["entry0.7458910525432818/transpose_1", "entry0.7458910525432818/Reshape"], "attr": {"T": {"type": "DT_FLOAT"}}}, {"name": "b1.b1.body.00.37783620027621834_pad/Pad", "op": "Pad", "input": ["entry0.7458910525432818/add", "b1.b1.body.00.37783620027621834_pad/Pad/paddings"], "attr": {"T": {"type": "DT_FLOAT"}, "Tpaddings": {"type": "DT_INT32"}}}, {"name": "b1.b1.body.00.37783620027621834/transpose", "op": "Transpose", "input": ["b1.b1.body.00.37783620027621834_pad/Pad", "b1.b1.body.00.37783620027621834/transpose/perm"], "attr": {"Tperm": {"type": "DT_INT32"}, "T": {"type": "DT_FLOAT"}}}, {"name": "b1.b1.body.00.37783620027621834/convolution", "op": "Conv2D", "input": ["b1.b1.body.00.37783620027621834/transpose", "b1.b1.body.00.37783620027621834/kernel"], "device": "/device:CPU:0", "attr": {"strides": {"list": {"i": ["1", "1", "1", "1"]}}, "dilations": {"list": {"i": ["1", "1", "1", "1"]}}, "data_format": {"s": "TkhXQw=="}, "use_cudnn_on_gpu": {"b": true}, "padding": {"s": "VkFMSUQ="}, "T": {"type": "DT_FLOAT"}, "explicit_paddings": {"list": {}}}}, {"name": "b1.b1.body.00.37783620027621834/transpose_1", "op": "Transpose", "input": ["b1.b1.body.00.37783620027621834/convolution", "b1.b1.body.00.37783620027621834/transpose_1/perm"], "attr": {"T": {"type": "DT_FLOAT"}, "Tperm": {"type": "DT_INT32"}}}, {"name": "b1.b1.body.00.37783620027621834/add", "op": "Add", "input": ["b1.b1.body.00.37783620027621834/transpose_1", "b1.b1.body.00.37783620027621834/Reshape"], "attr": {"T": {"type": "DT_FLOAT"}}}, {"name": "b1.b1.body.10.6517411381026201/Relu", "op": "Relu", "input": ["b1.b1.body.00.37783620027621834/add"], "attr": {"T": {"type": "DT_FLOAT"}}}, {"name": "b1.b1.body.20.8783524404492908_pad/Pad", "op": "Pad", "input": ["b1.b1.body.10.6517411381026201/Relu", "b1.b1.body.20.8783524404492908_pad/Pad/paddings"], "attr": {"T": {"type": "DT_FLOAT"}, "Tpaddings": {"type": "DT_INT32"}}}, {"name": "b1.b1.body.20.8783524404492908/transpose", "op": "Transpose", "input": ["b1.b1.body.20.8783524404492908_pad/Pad", "b1.b1.body.20.8783524404492908/transpose/perm"], "attr": {"Tperm": {"type": "DT_INT32"}, "T": {"type": "DT_FLOAT"}}}, {"name": "b1.b1.body.20.8783524404492908/convolution", "op": "Conv2D", "input": ["b1.b1.body.20.8783524404492908/transpose", "b1.b1.body.20.8783524404492908/kernel"], "device": "/device:CPU:0", "attr": {"explicit_paddings": {"list": {}}, "strides": {"list": {"i": ["1", "1", "1", "1"]}}, "data_format": {"s": "TkhXQw=="}, "T": {"type": "DT_FLOAT"}, "dilations": {"list": {"i": ["1", "1", "1", "1"]}}, "use_cudnn_on_gpu": {"b": true}, "padding": {"s": "VkFMSUQ="}}}, {"name": "b1.b1.body.20.8783524404492908/transpose_1", "op": "Transpose", "input": ["b1.b1.body.20.8783524404492908/convolution", "b1.b1.body.20.8783524404492908/transpose_1/perm"], "attr": {"T": {"type": "DT_FLOAT"}, "Tperm": {"type": "DT_INT32"}}}, {"name": "b1.b1.body.20.8783524404492908/add", "op": "Add", "input": ["b1.b1.body.20.8783524404492908/transpose_1", "b1.b1.body.20.8783524404492908/Reshape"], "attr": {"T": {"type": "DT_FLOAT"}}}, {"name": "b1.b10.549609697446752/add", "op": "Add", "input": ["b1.b1.body.20.8783524404492908/add", "entry0.7458910525432818/add"], "attr": {"T": {"type": "DT_FLOAT"}}}, {"name": "b1.b10.11601881185074547/Relu", "op": "Relu", "input": ["b1.b10.549609697446752/add"], "attr": {"T": {"type": "DT_FLOAT"}}}, {"name": "b10.7083292562416083/concat", "op": "ConcatV2", "input": ["entry0.7458910525432818/add", "b1.b10.11601881185074547/Relu", "b10.7083292562416083/concat/axis"], "attr": {"Tidx": {"type": "DT_INT32"}, "N": {"i": "2"}, "T": {"type": "DT_FLOAT"}}}, {"name": "b1.c1.body.00.8432475802897582/transpose", "op": "Transpose", "input": ["b10.7083292562416083/concat", "b1.c1.body.00.8432475802897582/transpose/perm"], "attr": {"Tperm": {"type": "DT_INT32"}, "T": {"type": "DT_FLOAT"}}}, {"name": "b1.c1.body.00.8432475802897582/convolution", "op": "Conv2D", "input": ["b1.c1.body.00.8432475802897582/transpose", "b1.c1.body.00.8432475802897582/kernel"], "device": "/device:CPU:0", "attr": {"T": {"type": "DT_FLOAT"}, "padding": {"s": "VkFMSUQ="}, "strides": {"list": {"i": ["1", "1", "1", "1"]}}, "explicit_paddings": {"list": {}}, "dilations": {"list": {"i": ["1", "1", "1", "1"]}}, "data_format": {"s": "TkhXQw=="}, "use_cudnn_on_gpu": {"b": true}}}, {"name": "b1.c1.body.00.8432475802897582/transpose_1", "op": "Transpose", "input": ["b1.c1.body.00.8432475802897582/convolution", "b1.c1.body.00.8432475802897582/transpose_1/perm"], "attr": {"T": {"type": "DT_FLOAT"}, "Tperm": {"type": "DT_INT32"}}}, {"name": "b1.c1.body.00.8432475802897582/add", "op": "Add", "input": ["b1.c1.body.00.8432475802897582/transpose_1", "b1.c1.body.00.8432475802897582/Reshape"], "attr": {"T": {"type": "DT_FLOAT"}}}, {"name": "b1.c1.body.10.28811426386139005/Relu", "op": "Relu", "input": ["b1.c1.body.00.8432475802897582/add"], "attr": {"T": {"type": "DT_FLOAT"}}}, {"name": "b1.b2.body.00.6520323299054688_pad/Pad", "op": "Pad", "input": ["b1.c1.body.10.28811426386139005/Relu", "b1.b2.body.00.6520323299054688_pad/Pad/paddings"], "attr": {"Tpaddings": {"type": "DT_INT32"}, "T": {"type": "DT_FLOAT"}}}, {"name": "b1.b2.body.00.6520323299054688/transpose", "op": "Transpose", "input": ["b1.b2.body.00.6520323299054688_pad/Pad", "b1.b2.body.00.6520323299054688/transpose/perm"], "attr": {"T": {"type": "DT_FLOAT"}, "Tperm": {"type": "DT_INT32"}}}, {"name": "b1.b2.body.00.6520323299054688/convolution", "op": "Conv2D", "input": ["b1.b2.body.00.6520323299054688/transpose", "b1.b2.body.00.6520323299054688/kernel"], "device": "/device:CPU:0", "attr": {"dilations": {"list": {"i": ["1", "1", "1", "1"]}}, "T": {"type": "DT_FLOAT"}, "use_cudnn_on_gpu": {"b": true}, "data_format": {"s": "TkhXQw=="}, "strides": {"list": {"i": ["1", "1", "1", "1"]}}, "padding": {"s": "VkFMSUQ="}, "explicit_paddings": {"list": {}}}}, {"name": "b1.b2.body.00.6520323299054688/transpose_1", "op": "Transpose", "input": ["b1.b2.body.00.6520323299054688/convolution", "b1.b2.body.00.6520323299054688/transpose_1/perm"], "attr": {"T": {"type": "DT_FLOAT"}, "Tperm": {"type": "DT_INT32"}}}, {"name": "b1.b2.body.00.6520323299054688/add", "op": "Add", "input": ["b1.b2.body.00.6520323299054688/transpose_1", "b1.b2.body.00.6520323299054688/Reshape"], "attr": {"T": {"type": "DT_FLOAT"}}}, {"name": "b1.b2.body.10.881801856269289/Relu", "op": "Relu", "input": ["b1.b2.body.00.6520323299054688/add"], "attr": {"T": {"type": "DT_FLOAT"}}}, {"name": "b1.b2.body.20.3078011901505564_pad/Pad", "op": "Pad", "input": ["b1.b2.body.10.881801856269289/Relu", "b1.b2.body.20.3078011901505564_pad/Pad/paddings"], "attr": {"T": {"type": "DT_FLOAT"}, "Tpaddings": {"type": "DT_INT32"}}}, {"name": "b1.b2.body.20.3078011901505564/transpose", "op": "Transpose", "input": ["b1.b2.body.20.3078011901505564_pad/Pad", "b1.b2.body.20.3078011901505564/transpose/perm"], "attr": {"Tperm": {"type": "DT_INT32"}, "T": {"type": "DT_FLOAT"}}}, {"name": "b1.b2.body.20.3078011901505564/convolution", "op": "Conv2D", "input": ["b1.b2.body.20.3078011901505564/transpose", "b1.b2.body.20.3078011901505564/kernel"], "device": "/device:CPU:0", "attr": {"explicit_paddings": {"list": {}}, "data_format": {"s": "TkhXQw=="}, "T": {"type": "DT_FLOAT"}, "strides": {"list": {"i": ["1", "1", "1", "1"]}}, "use_cudnn_on_gpu": {"b": true}, "padding": {"s": "VkFMSUQ="}, "dilations": {"list": {"i": ["1", "1", "1", "1"]}}}}, {"name": "b1.b2.body.20.3078011901505564/transpose_1", "op": "Transpose", "input": ["b1.b2.body.20.3078011901505564/convolution", "b1.b2.body.20.3078011901505564/transpose_1/perm"], "attr": {"T": {"type": "DT_FLOAT"}, "Tperm": {"type": "DT_INT32"}}}, {"name": "b1.b2.body.20.3078011901505564/add", "op": "Add", "input": ["b1.b2.body.20.3078011901505564/transpose_1", "b1.b2.body.20.3078011901505564/Reshape"], "attr": {"T": {"type": "DT_FLOAT"}}}, {"name": "b1.b20.7192649470320736/add", "op": "Add", "input": ["b1.b2.body.20.3078011901505564/add", "b1.c1.body.10.28811426386139005/Relu"], "attr": {"T": {"type": "DT_FLOAT"}}}, {"name": "b1.b20.5549964845892765/Relu", "op": "Relu", "input": ["b1.b20.7192649470320736/add"], "attr": {"T": {"type": "DT_FLOAT"}}}, {"name": "b10.3286765880998359/concat", "op": "ConcatV2", "input": ["b10.7083292562416083/concat", "b1.b20.5549964845892765/Relu", "b10.3286765880998359/concat/axis"], "attr": {"N": {"i": "2"}, "T": {"type": "DT_FLOAT"}, "Tidx": {"type": "DT_INT32"}}}, {"name": "b1.c2.body.00.43531056176473415/transpose", "op": "Transpose", "input": ["b10.3286765880998359/concat", "b1.c2.body.00.43531056176473415/transpose/perm"], "attr": {"Tperm": {"type": "DT_INT32"}, "T": {"type": "DT_FLOAT"}}}, {"name": "b1.c2.body.00.43531056176473415/convolution", "op": "Conv2D", "input": ["b1.c2.body.00.43531056176473415/transpose", "b1.c2.body.00.43531056176473415/kernel"], "device": "/device:CPU:0", "attr": {"use_cudnn_on_gpu": {"b": true}, "strides": {"list": {"i": ["1", "1", "1", "1"]}}, "padding": {"s": "VkFMSUQ="}, "T": {"type": "DT_FLOAT"}, "dilations": {"list": {"i": ["1", "1", "1", "1"]}}, "explicit_paddings": {"list": {}}, "data_format": {"s": "TkhXQw=="}}}, {"name": "b1.c2.body.00.43531056176473415/transpose_1", "op": "Transpose", "input": ["b1.c2.body.00.43531056176473415/convolution", "b1.c2.body.00.43531056176473415/transpose_1/perm"], "attr": {"T": {"type": "DT_FLOAT"}, "Tperm": {"type": "DT_INT32"}}}, {"name": "b1.c2.body.00.43531056176473415/add", "op": "Add", "input": ["b1.c2.body.00.43531056176473415/transpose_1", "b1.c2.body.00.43531056176473415/Reshape"], "attr": {"T": {"type": "DT_FLOAT"}}}, {"name": "b1.c2.body.10.8473123290794183/Relu", "op": "Relu", "input": ["b1.c2.body.00.43531056176473415/add"], "attr": {"T": {"type": "DT_FLOAT"}}}, {"name": "b1.b3.body.00.45651423535683444_pad/Pad", "op": "Pad", "input": ["b1.c2.body.10.8473123290794183/Relu", "b1.b3.body.00.45651423535683444_pad/Pad/paddings"], "attr": {"T": {"type": "DT_FLOAT"}, "Tpaddings": {"type": "DT_INT32"}}}, {"name": "b1.b3.body.00.45651423535683444/transpose", "op": "Transpose", "input": ["b1.b3.body.00.45651423535683444_pad/Pad", "b1.b3.body.00.45651423535683444/transpose/perm"], "attr": {"Tperm": {"type": "DT_INT32"}, "T": {"type": "DT_FLOAT"}}}, {"name": "b1.b3.body.00.45651423535683444/convolution", "op": "Conv2D", "input": ["b1.b3.body.00.45651423535683444/transpose", "b1.b3.body.00.45651423535683444/kernel"], "device": "/device:CPU:0", "attr": {"strides": {"list": {"i": ["1", "1", "1", "1"]}}, "use_cudnn_on_gpu": {"b": true}, "padding": {"s": "VkFMSUQ="}, "dilations": {"list": {"i": ["1", "1", "1", "1"]}}, "data_format": {"s": "TkhXQw=="}, "explicit_paddings": {"list": {}}, "T": {"type": "DT_FLOAT"}}}, {"name": "b1.b3.body.00.45651423535683444/transpose_1", "op": "Transpose", "input": ["b1.b3.body.00.45651423535683444/convolution", "b1.b3.body.00.45651423535683444/transpose_1/perm"], "attr": {"T": {"type": "DT_FLOAT"}, "Tperm": {"type": "DT_INT32"}}}, {"name": "b1.b3.body.00.45651423535683444/add", "op": "Add", "input": ["b1.b3.body.00.45651423535683444/transpose_1", "b1.b3.body.00.45651423535683444/Reshape"], "attr": {"T": {"type": "DT_FLOAT"}}}, {"name": "b1.b3.body.10.7599357373536145/Relu", "op": "Relu", "input": ["b1.b3.body.00.45651423535683444/add"], "attr": {"T": {"type": "DT_FLOAT"}}}, {"name": "b1.b3.body.20.73753430170241_pad/Pad", "op": "Pad", "input": ["b1.b3.body.10.7599357373536145/Relu", "b1.b3.body.20.73753430170241_pad/Pad/paddings"], "attr": {"T": {"type": "DT_FLOAT"}, "Tpaddings": {"type": "DT_INT32"}}}, {"name": "b1.b3.body.20.73753430170241/transpose", "op": "Transpose", "input": ["b1.b3.body.20.73753430170241_pad/Pad", "b1.b3.body.20.73753430170241/transpose/perm"], "attr": {"T": {"type": "DT_FLOAT"}, "Tperm": {"type": "DT_INT32"}}}, {"name": "b1.b3.body.20.73753430170241/convolution", "op": "Conv2D", "input": ["b1.b3.body.20.73753430170241/transpose", "b1.b3.body.20.73753430170241/kernel"], "device": "/device:CPU:0", "attr": {"dilations": {"list": {"i": ["1", "1", "1", "1"]}}, "data_format": {"s": "TkhXQw=="}, "T": {"type": "DT_FLOAT"}, "strides": {"list": {"i": ["1", "1", "1", "1"]}}, "use_cudnn_on_gpu": {"b": true}, "padding": {"s": "VkFMSUQ="}, "explicit_paddings": {"list": {}}}}, {"name": "b1.b3.body.20.73753430170241/transpose_1", "op": "Transpose", "input": ["b1.b3.body.20.73753430170241/convolution", "b1.b3.body.20.73753430170241/transpose_1/perm"], "attr": {"Tperm": {"type": "DT_INT32"}, "T": {"type": "DT_FLOAT"}}}, {"name": "b1.b3.body.20.73753430170241/add", "op": "Add", "input": ["b1.b3.body.20.73753430170241/transpose_1", "b1.b3.body.20.73753430170241/Reshape"], "attr": {"T": {"type": "DT_FLOAT"}}}, {"name": "b1.b30.2874706761484428/add", "op": "Add", "input": ["b1.b3.body.20.73753430170241/add", "b1.c2.body.10.8473123290794183/Relu"], "attr": {"T": {"type": "DT_FLOAT"}}}, {"name": "b1.b30.8815188434701239/Relu", "op": "Relu", "input": ["b1.b30.2874706761484428/add"], "attr": {"T": {"type": "DT_FLOAT"}}}, {"name": "b10.1749208871883252/concat", "op": "ConcatV2", "input": ["b10.3286765880998359/concat", "b1.b30.8815188434701239/Relu", "b10.1749208871883252/concat/axis"], "attr": {"T": {"type": "DT_FLOAT"}, "Tidx": {"type": "DT_INT32"}, "N": {"i": "2"}}}, {"name": "b1.c3.body.00.8365417938204992/transpose", "op": "Transpose", "input": ["b10.1749208871883252/concat", "b1.c3.body.00.8365417938204992/transpose/perm"], "attr": {"T": {"type": "DT_FLOAT"}, "Tperm": {"type": "DT_INT32"}}}, {"name": "b1.c3.body.00.8365417938204992/convolution", "op": "Conv2D", "input": ["b1.c3.body.00.8365417938204992/transpose", "b1.c3.body.00.8365417938204992/kernel"], "device": "/device:CPU:0", "attr": {"dilations": {"list": {"i": ["1", "1", "1", "1"]}}, "use_cudnn_on_gpu": {"b": true}, "strides": {"list": {"i": ["1", "1", "1", "1"]}}, "data_format": {"s": "TkhXQw=="}, "padding": {"s": "VkFMSUQ="}, "T": {"type": "DT_FLOAT"}, "explicit_paddings": {"list": {}}}}, {"name": "b1.c3.body.00.8365417938204992/transpose_1", "op": "Transpose", "input": ["b1.c3.body.00.8365417938204992/convolution", "b1.c3.body.00.8365417938204992/transpose_1/perm"], "attr": {"T": {"type": "DT_FLOAT"}, "Tperm": {"type": "DT_INT32"}}}, {"name": "b1.c3.body.00.8365417938204992/add", "op": "Add", "input": ["b1.c3.body.00.8365417938204992/transpose_1", "b1.c3.body.00.8365417938204992/Reshape"], "attr": {"T": {"type": "DT_FLOAT"}}}, {"name": "b1.c3.body.10.7888440157637435/Relu", "op": "Relu", "input": ["b1.c3.body.00.8365417938204992/add"], "attr": {"T": {"type": "DT_FLOAT"}}}, {"name": "0.20046756351022732/concat", "op": "ConcatV2", "input": ["entry0.7458910525432818/add", "b1.c3.body.10.7888440157637435/Relu", "0.20046756351022732/concat/axis"], "attr": {"Tidx": {"type": "DT_INT32"}, "T": {"type": "DT_FLOAT"}, "N": {"i": "2"}}}, {"name": "c1.body.00.7963751380351581/transpose", "op": "Transpose", "input": ["0.20046756351022732/concat", "c1.body.00.7963751380351581/transpose/perm"], "attr": {"T": {"type": "DT_FLOAT"}, "Tperm": {"type": "DT_INT32"}}}, {"name": "c1.body.00.7963751380351581/convolution", "op": "Conv2D", "input": ["c1.body.00.7963751380351581/transpose", "c1.body.00.7963751380351581/kernel"], "device": "/device:CPU:0", "attr": {"strides": {"list": {"i": ["1", "1", "1", "1"]}}, "T": {"type": "DT_FLOAT"}, "use_cudnn_on_gpu": {"b": true}, "padding": {"s": "VkFMSUQ="}, "dilations": {"list": {"i": ["1", "1", "1", "1"]}}, "data_format": {"s": "TkhXQw=="}, "explicit_paddings": {"list": {}}}}, {"name": "c1.body.00.7963751380351581/transpose_1", "op": "Transpose", "input": ["c1.body.00.7963751380351581/convolution", "c1.body.00.7963751380351581/transpose_1/perm"], "attr": {"T": {"type": "DT_FLOAT"}, "Tperm": {"type": "DT_INT32"}}}, {"name": "c1.body.00.7963751380351581/add", "op": "Add", "input": ["c1.body.00.7963751380351581/transpose_1", "c1.body.00.7963751380351581/Reshape"], "attr": {"T": {"type": "DT_FLOAT"}}}, {"name": "c1.body.10.2588745406842937/Relu", "op": "Relu", "input": ["c1.body.00.7963751380351581/add"], "attr": {"T": {"type": "DT_FLOAT"}}}, {"name": "b2.b1.body.00.3346376479106308_pad/Pad", "op": "Pad", "input": ["c1.body.10.2588745406842937/Relu", "b2.b1.body.00.3346376479106308_pad/Pad/paddings"], "attr": {"T": {"type": "DT_FLOAT"}, "Tpaddings": {"type": "DT_INT32"}}}, {"name": "b2.b1.body.00.3346376479106308/transpose", "op": "Transpose", "input": ["b2.b1.body.00.3346376479106308_pad/Pad", "b2.b1.body.00.3346376479106308/transpose/perm"], "attr": {"T": {"type": "DT_FLOAT"}, "Tperm": {"type": "DT_INT32"}}}, {"name": "b2.b1.body.00.3346376479106308/convolution", "op": "Conv2D", "input": ["b2.b1.body.00.3346376479106308/transpose", "b2.b1.body.00.3346376479106308/kernel"], "device": "/device:CPU:0", "attr": {"dilations": {"list": {"i": ["1", "1", "1", "1"]}}, "T": {"type": "DT_FLOAT"}, "explicit_paddings": {"list": {}}, "use_cudnn_on_gpu": {"b": true}, "data_format": {"s": "TkhXQw=="}, "padding": {"s": "VkFMSUQ="}, "strides": {"list": {"i": ["1", "1", "1", "1"]}}}}, {"name": "b2.b1.body.00.3346376479106308/transpose_1", "op": "Transpose", "input": ["b2.b1.body.00.3346376479106308/convolution", "b2.b1.body.00.3346376479106308/transpose_1/perm"], "attr": {"Tperm": {"type": "DT_INT32"}, "T": {"type": "DT_FLOAT"}}}, {"name": "b2.b1.body.00.3346376479106308/add", "op": "Add", "input": ["b2.b1.body.00.3346376479106308/transpose_1", "b2.b1.body.00.3346376479106308/Reshape"], "attr": {"T": {"type": "DT_FLOAT"}}}, {"name": "b2.b1.body.10.2936826885191802/Relu", "op": "Relu", "input": ["b2.b1.body.00.3346376479106308/add"], "attr": {"T": {"type": "DT_FLOAT"}}}, {"name": "b2.b1.body.20.054997286777011656_pad/Pad", "op": "Pad", "input": ["b2.b1.body.10.2936826885191802/Relu", "b2.b1.body.20.054997286777011656_pad/Pad/paddings"], "attr": {"Tpaddings": {"type": "DT_INT32"}, "T": {"type": "DT_FLOAT"}}}, {"name": "b2.b1.body.20.054997286777011656/transpose", "op": "Transpose", "input": ["b2.b1.body.20.054997286777011656_pad/Pad", "b2.b1.body.20.054997286777011656/transpose/perm"], "attr": {"T": {"type": "DT_FLOAT"}, "Tperm": {"type": "DT_INT32"}}}, {"name": "b2.b1.body.20.054997286777011656/convolution", "op": "Conv2D", "input": ["b2.b1.body.20.054997286777011656/transpose", "b2.b1.body.20.054997286777011656/kernel"], "device": "/device:CPU:0", "attr": {"dilations": {"list": {"i": ["1", "1", "1", "1"]}}, "use_cudnn_on_gpu": {"b": true}, "explicit_paddings": {"list": {}}, "strides": {"list": {"i": ["1", "1", "1", "1"]}}, "padding": {"s": "VkFMSUQ="}, "T": {"type": "DT_FLOAT"}, "data_format": {"s": "TkhXQw=="}}}, {"name": "b2.b1.body.20.054997286777011656/transpose_1", "op": "Transpose", "input": ["b2.b1.body.20.054997286777011656/convolution", "b2.b1.body.20.054997286777011656/transpose_1/perm"], "attr": {"T": {"type": "DT_FLOAT"}, "Tperm": {"type": "DT_INT32"}}}, {"name": "b2.b1.body.20.054997286777011656/add", "op": "Add", "input": ["b2.b1.body.20.054997286777011656/transpose_1", "b2.b1.body.20.054997286777011656/Reshape"], "attr": {"T": {"type": "DT_FLOAT"}}}, {"name": "b2.b10.12144911264648584/add", "op": "Add", "input": ["b2.b1.body.20.054997286777011656/add", "c1.body.10.2588745406842937/Relu"], "attr": {"T": {"type": "DT_FLOAT"}}}, {"name": "b2.b10.36866822938916344/Relu", "op": "Relu", "input": ["b2.b10.12144911264648584/add"], "attr": {"T": {"type": "DT_FLOAT"}}}, {"name": "b20.837860348277081/concat", "op": "ConcatV2", "input": ["c1.body.10.2588745406842937/Relu", "b2.b10.36866822938916344/Relu", "b20.837860348277081/concat/axis"], "attr": {"N": {"i": "2"}, "T": {"type": "DT_FLOAT"}, "Tidx": {"type": "DT_INT32"}}}, {"name": "b2.c1.body.00.7205965551871459/transpose", "op": "Transpose", "input": ["b20.837860348277081/concat", "b2.c1.body.00.7205965551871459/transpose/perm"], "attr": {"Tperm": {"type": "DT_INT32"}, "T": {"type": "DT_FLOAT"}}}, {"name": "b2.c1.body.00.7205965551871459/convolution", "op": "Conv2D", "input": ["b2.c1.body.00.7205965551871459/transpose", "b2.c1.body.00.7205965551871459/kernel"], "device": "/device:CPU:0", "attr": {"T": {"type": "DT_FLOAT"}, "dilations": {"list": {"i": ["1", "1", "1", "1"]}}, "data_format": {"s": "TkhXQw=="}, "strides": {"list": {"i": ["1", "1", "1", "1"]}}, "use_cudnn_on_gpu": {"b": true}, "explicit_paddings": {"list": {}}, "padding": {"s": "VkFMSUQ="}}}, {"name": "b2.c1.body.00.7205965551871459/transpose_1", "op": "Transpose", "input": ["b2.c1.body.00.7205965551871459/convolution", "b2.c1.body.00.7205965551871459/transpose_1/perm"], "attr": {"T": {"type": "DT_FLOAT"}, "Tperm": {"type": "DT_INT32"}}}, {"name": "b2.c1.body.00.7205965551871459/add", "op": "Add", "input": ["b2.c1.body.00.7205965551871459/transpose_1", "b2.c1.body.00.7205965551871459/Reshape"], "attr": {"T": {"type": "DT_FLOAT"}}}, {"name": "b2.c1.body.10.2178513628402433/Relu", "op": "Relu", "input": ["b2.c1.body.00.7205965551871459/add"], "attr": {"T": {"type": "DT_FLOAT"}}}, {"name": "b2.b2.body.00.8514351312591644_pad/Pad", "op": "Pad", "input": ["b2.c1.body.10.2178513628402433/Relu", "b2.b2.body.00.8514351312591644_pad/Pad/paddings"], "attr": {"T": {"type": "DT_FLOAT"}, "Tpaddings": {"type": "DT_INT32"}}}, {"name": "b2.b2.body.00.8514351312591644/transpose", "op": "Transpose", "input": ["b2.b2.body.00.8514351312591644_pad/Pad", "b2.b2.body.00.8514351312591644/transpose/perm"], "attr": {"T": {"type": "DT_FLOAT"}, "Tperm": {"type": "DT_INT32"}}}, {"name": "b2.b2.body.00.8514351312591644/convolution", "op": "Conv2D", "input": ["b2.b2.body.00.8514351312591644/transpose", "b2.b2.body.00.8514351312591644/kernel"], "device": "/device:CPU:0", "attr": {"dilations": {"list": {"i": ["1", "1", "1", "1"]}}, "explicit_paddings": {"list": {}}, "use_cudnn_on_gpu": {"b": true}, "padding": {"s": "VkFMSUQ="}, "strides": {"list": {"i": ["1", "1", "1", "1"]}}, "data_format": {"s": "TkhXQw=="}, "T": {"type": "DT_FLOAT"}}}, {"name": "b2.b2.body.00.8514351312591644/transpose_1", "op": "Transpose", "input": ["b2.b2.body.00.8514351312591644/convolution", "b2.b2.body.00.8514351312591644/transpose_1/perm"], "attr": {"T": {"type": "DT_FLOAT"}, "Tperm": {"type": "DT_INT32"}}}, {"name": "b2.b2.body.00.8514351312591644/add", "op": "Add", "input": ["b2.b2.body.00.8514351312591644/transpose_1", "b2.b2.body.00.8514351312591644/Reshape"], "attr": {"T": {"type": "DT_FLOAT"}}}, {"name": "b2.b2.body.10.08302421868534327/Relu", "op": "Relu", "input": ["b2.b2.body.00.8514351312591644/add"], "attr": {"T": {"type": "DT_FLOAT"}}}, {"name": "b2.b2.body.20.7594478019234668_pad/Pad", "op": "Pad", "input": ["b2.b2.body.10.08302421868534327/Relu", "b2.b2.body.20.7594478019234668_pad/Pad/paddings"], "attr": {"Tpaddings": {"type": "DT_INT32"}, "T": {"type": "DT_FLOAT"}}}, {"name": "b2.b2.body.20.7594478019234668/transpose", "op": "Transpose", "input": ["b2.b2.body.20.7594478019234668_pad/Pad", "b2.b2.body.20.7594478019234668/transpose/perm"], "attr": {"Tperm": {"type": "DT_INT32"}, "T": {"type": "DT_FLOAT"}}}, {"name": "b2.b2.body.20.7594478019234668/convolution", "op": "Conv2D", "input": ["b2.b2.body.20.7594478019234668/transpose", "b2.b2.body.20.7594478019234668/kernel"], "device": "/device:CPU:0", "attr": {"use_cudnn_on_gpu": {"b": true}, "strides": {"list": {"i": ["1", "1", "1", "1"]}}, "T": {"type": "DT_FLOAT"}, "data_format": {"s": "TkhXQw=="}, "padding": {"s": "VkFMSUQ="}, "explicit_paddings": {"list": {}}, "dilations": {"list": {"i": ["1", "1", "1", "1"]}}}}, {"name": "b2.b2.body.20.7594478019234668/transpose_1", "op": "Transpose", "input": ["b2.b2.body.20.7594478019234668/convolution", "b2.b2.body.20.7594478019234668/transpose_1/perm"], "attr": {"Tperm": {"type": "DT_INT32"}, "T": {"type": "DT_FLOAT"}}}, {"name": "b2.b2.body.20.7594478019234668/add", "op": "Add", "input": ["b2.b2.body.20.7594478019234668/transpose_1", "b2.b2.body.20.7594478019234668/Reshape"], "attr": {"T": {"type": "DT_FLOAT"}}}, {"name": "b2.b20.8110629475157355/add", "op": "Add", "input": ["b2.b2.body.20.7594478019234668/add", "b2.c1.body.10.2178513628402433/Relu"], "attr": {"T": {"type": "DT_FLOAT"}}}, {"name": "b2.b20.288870252941146/Relu", "op": "Relu", "input": ["b2.b20.8110629475157355/add"], "attr": {"T": {"type": "DT_FLOAT"}}}, {"name": "b20.30196614123700816/concat", "op": "ConcatV2", "input": ["b20.837860348277081/concat", "b2.b20.288870252941146/Relu", "b20.30196614123700816/concat/axis"], "attr": {"N": {"i": "2"}, "T": {"type": "DT_FLOAT"}, "Tidx": {"type": "DT_INT32"}}}, {"name": "b2.c2.body.00.02939658995719252/transpose", "op": "Transpose", "input": ["b20.30196614123700816/concat", "b2.c2.body.00.02939658995719252/transpose/perm"], "attr": {"T": {"type": "DT_FLOAT"}, "Tperm": {"type": "DT_INT32"}}}, {"name": "b2.c2.body.00.02939658995719252/convolution", "op": "Conv2D", "input": ["b2.c2.body.00.02939658995719252/transpose", "b2.c2.body.00.02939658995719252/kernel"], "device": "/device:CPU:0", "attr": {"use_cudnn_on_gpu": {"b": true}, "T": {"type": "DT_FLOAT"}, "strides": {"list": {"i": ["1", "1", "1", "1"]}}, "data_format": {"s": "TkhXQw=="}, "padding": {"s": "VkFMSUQ="}, "dilations": {"list": {"i": ["1", "1", "1", "1"]}}, "explicit_paddings": {"list": {}}}}, {"name": "b2.c2.body.00.02939658995719252/transpose_1", "op": "Transpose", "input": ["b2.c2.body.00.02939658995719252/convolution", "b2.c2.body.00.02939658995719252/transpose_1/perm"], "attr": {"Tperm": {"type": "DT_INT32"}, "T": {"type": "DT_FLOAT"}}}, {"name": "b2.c2.body.00.02939658995719252/add", "op": "Add", "input": ["b2.c2.body.00.02939658995719252/transpose_1", "b2.c2.body.00.02939658995719252/Reshape"], "attr": {"T": {"type": "DT_FLOAT"}}}, {"name": "b2.c2.body.10.061718077906471214/Relu", "op": "Relu", "input": ["b2.c2.body.00.02939658995719252/add"], "attr": {"T": {"type": "DT_FLOAT"}}}, {"name": "b2.b3.body.00.006913251005958965_pad/Pad", "op": "Pad", "input": ["b2.c2.body.10.061718077906471214/Relu", "b2.b3.body.00.006913251005958965_pad/Pad/paddings"], "attr": {"T": {"type": "DT_FLOAT"}, "Tpaddings": {"type": "DT_INT32"}}}, {"name": "b2.b3.body.00.006913251005958965/transpose", "op": "Transpose", "input": ["b2.b3.body.00.006913251005958965_pad/Pad", "b2.b3.body.00.006913251005958965/transpose/perm"], "attr": {"T": {"type": "DT_FLOAT"}, "Tperm": {"type": "DT_INT32"}}}, {"name": "b2.b3.body.00.006913251005958965/convolution", "op": "Conv2D", "input": ["b2.b3.body.00.006913251005958965/transpose", "b2.b3.body.00.006913251005958965/kernel"], "device": "/device:CPU:0", "attr": {"T": {"type": "DT_FLOAT"}, "use_cudnn_on_gpu": {"b": true}, "dilations": {"list": {"i": ["1", "1", "1", "1"]}}, "data_format": {"s": "TkhXQw=="}, "padding": {"s": "VkFMSUQ="}, "explicit_paddings": {"list": {}}, "strides": {"list": {"i": ["1", "1", "1", "1"]}}}}, {"name": "b2.b3.body.00.006913251005958965/transpose_1", "op": "Transpose", "input": ["b2.b3.body.00.006913251005958965/convolution", "b2.b3.body.00.006913251005958965/transpose_1/perm"], "attr": {"Tperm": {"type": "DT_INT32"}, "T": {"type": "DT_FLOAT"}}}, {"name": "b2.b3.body.00.006913251005958965/add", "op": "Add", "input": ["b2.b3.body.00.006913251005958965/transpose_1", "b2.b3.body.00.006913251005958965/Reshape"], "attr": {"T": {"type": "DT_FLOAT"}}}, {"name": "b2.b3.body.10.42378248359767046/Relu", "op": "Relu", "input": ["b2.b3.body.00.006913251005958965/add"], "attr": {"T": {"type": "DT_FLOAT"}}}, {"name": "b2.b3.body.20.6037477351947089_pad/Pad", "op": "Pad", "input": ["b2.b3.body.10.42378248359767046/Relu", "b2.b3.body.20.6037477351947089_pad/Pad/paddings"], "attr": {"Tpaddings": {"type": "DT_INT32"}, "T": {"type": "DT_FLOAT"}}}, {"name": "b2.b3.body.20.6037477351947089/transpose", "op": "Transpose", "input": ["b2.b3.body.20.6037477351947089_pad/Pad", "b2.b3.body.20.6037477351947089/transpose/perm"], "attr": {"Tperm": {"type": "DT_INT32"}, "T": {"type": "DT_FLOAT"}}}, {"name": "b2.b3.body.20.6037477351947089/convolution", "op": "Conv2D", "input": ["b2.b3.body.20.6037477351947089/transpose", "b2.b3.body.20.6037477351947089/kernel"], "device": "/device:CPU:0", "attr": {"padding": {"s": "VkFMSUQ="}, "data_format": {"s": "TkhXQw=="}, "strides": {"list": {"i": ["1", "1", "1", "1"]}}, "use_cudnn_on_gpu": {"b": true}, "explicit_paddings": {"list": {}}, "dilations": {"list": {"i": ["1", "1", "1", "1"]}}, "T": {"type": "DT_FLOAT"}}}, {"name": "b2.b3.body.20.6037477351947089/transpose_1", "op": "Transpose", "input": ["b2.b3.body.20.6037477351947089/convolution", "b2.b3.body.20.6037477351947089/transpose_1/perm"], "attr": {"T": {"type": "DT_FLOAT"}, "Tperm": {"type": "DT_INT32"}}}, {"name": "b2.b3.body.20.6037477351947089/add", "op": "Add", "input": ["b2.b3.body.20.6037477351947089/transpose_1", "b2.b3.body.20.6037477351947089/Reshape"], "attr": {"T": {"type": "DT_FLOAT"}}}, {"name": "b2.b30.9735080211331745/add", "op": "Add", "input": ["b2.b3.body.20.6037477351947089/add", "b2.c2.body.10.061718077906471214/Relu"], "attr": {"T": {"type": "DT_FLOAT"}}}, {"name": "b2.b30.9986219438342754/Relu", "op": "Relu", "input": ["b2.b30.9735080211331745/add"], "attr": {"T": {"type": "DT_FLOAT"}}}, {"name": "b20.760123869524291/concat", "op": "ConcatV2", "input": ["b20.30196614123700816/concat", "b2.b30.9986219438342754/Relu", "b20.760123869524291/concat/axis"], "attr": {"Tidx": {"type": "DT_INT32"}, "T": {"type": "DT_FLOAT"}, "N": {"i": "2"}}}, {"name": "b2.c3.body.00.9144090871557516/transpose", "op": "Transpose", "input": ["b20.760123869524291/concat", "b2.c3.body.00.9144090871557516/transpose/perm"], "attr": {"Tperm": {"type": "DT_INT32"}, "T": {"type": "DT_FLOAT"}}}, {"name": "b2.c3.body.00.9144090871557516/convolution", "op": "Conv2D", "input": ["b2.c3.body.00.9144090871557516/transpose", "b2.c3.body.00.9144090871557516/kernel"], "device": "/device:CPU:0", "attr": {"dilations": {"list": {"i": ["1", "1", "1", "1"]}}, "strides": {"list": {"i": ["1", "1", "1", "1"]}}, "use_cudnn_on_gpu": {"b": true}, "T": {"type": "DT_FLOAT"}, "explicit_paddings": {"list": {}}, "data_format": {"s": "TkhXQw=="}, "padding": {"s": "VkFMSUQ="}}}, {"name": "b2.c3.body.00.9144090871557516/transpose_1", "op": "Transpose", "input": ["b2.c3.body.00.9144090871557516/convolution", "b2.c3.body.00.9144090871557516/transpose_1/perm"], "attr": {"Tperm": {"type": "DT_INT32"}, "T": {"type": "DT_FLOAT"}}}, {"name": "b2.c3.body.00.9144090871557516/add", "op": "Add", "input": ["b2.c3.body.00.9144090871557516/transpose_1", "b2.c3.body.00.9144090871557516/Reshape"], "attr": {"T": {"type": "DT_FLOAT"}}}, {"name": "b2.c3.body.10.1937218189823141/Relu", "op": "Relu", "input": ["b2.c3.body.00.9144090871557516/add"], "attr": {"T": {"type": "DT_FLOAT"}}}, {"name": "0.745294373906827/concat", "op": "ConcatV2", "input": ["0.20046756351022732/concat", "b2.c3.body.10.1937218189823141/Relu", "0.745294373906827/concat/axis"], "attr": {"Tidx": {"type": "DT_INT32"}, "N": {"i": "2"}, "T": {"type": "DT_FLOAT"}}}, {"name": "c2.body.00.0564468817451268/transpose", "op": "Transpose", "input": ["0.745294373906827/concat", "c2.body.00.0564468817451268/transpose/perm"], "attr": {"T": {"type": "DT_FLOAT"}, "Tperm": {"type": "DT_INT32"}}}, {"name": "c2.body.00.0564468817451268/convolution", "op": "Conv2D", "input": ["c2.body.00.0564468817451268/transpose", "c2.body.00.0564468817451268/kernel"], "device": "/device:CPU:0", "attr": {"explicit_paddings": {"list": {}}, "strides": {"list": {"i": ["1", "1", "1", "1"]}}, "data_format": {"s": "TkhXQw=="}, "padding": {"s": "VkFMSUQ="}, "use_cudnn_on_gpu": {"b": true}, "T": {"type": "DT_FLOAT"}, "dilations": {"list": {"i": ["1", "1", "1", "1"]}}}}, {"name": "c2.body.00.0564468817451268/transpose_1", "op": "Transpose", "input": ["c2.body.00.0564468817451268/convolution", "c2.body.00.0564468817451268/transpose_1/perm"], "attr": {"T": {"type": "DT_FLOAT"}, "Tperm": {"type": "DT_INT32"}}}, {"name": "c2.body.00.0564468817451268/add", "op": "Add", "input": ["c2.body.00.0564468817451268/transpose_1", "c2.body.00.0564468817451268/Reshape"], "attr": {"T": {"type": "DT_FLOAT"}}}, {"name": "c2.body.10.4328447108684145/Relu", "op": "Relu", "input": ["c2.body.00.0564468817451268/add"], "attr": {"T": {"type": "DT_FLOAT"}}}, {"name": "b3.b1.body.00.722057533379368_pad/Pad", "op": "Pad", "input": ["c2.body.10.4328447108684145/Relu", "b3.b1.body.00.722057533379368_pad/Pad/paddings"], "attr": {"Tpaddings": {"type": "DT_INT32"}, "T": {"type": "DT_FLOAT"}}}, {"name": "b3.b1.body.00.722057533379368/transpose", "op": "Transpose", "input": ["b3.b1.body.00.722057533379368_pad/Pad", "b3.b1.body.00.722057533379368/transpose/perm"], "attr": {"T": {"type": "DT_FLOAT"}, "Tperm": {"type": "DT_INT32"}}}, {"name": "b3.b1.body.00.722057533379368/convolution", "op": "Conv2D", "input": ["b3.b1.body.00.722057533379368/transpose", "b3.b1.body.00.722057533379368/kernel"], "device": "/device:CPU:0", "attr": {"dilations": {"list": {"i": ["1", "1", "1", "1"]}}, "data_format": {"s": "TkhXQw=="}, "padding": {"s": "VkFMSUQ="}, "explicit_paddings": {"list": {}}, "strides": {"list": {"i": ["1", "1", "1", "1"]}}, "T": {"type": "DT_FLOAT"}, "use_cudnn_on_gpu": {"b": true}}}, {"name": "b3.b1.body.00.722057533379368/transpose_1", "op": "Transpose", "input": ["b3.b1.body.00.722057533379368/convolution", "b3.b1.body.00.722057533379368/transpose_1/perm"], "attr": {"Tperm": {"type": "DT_INT32"}, "T": {"type": "DT_FLOAT"}}}, {"name": "b3.b1.body.00.722057533379368/add", "op": "Add", "input": ["b3.b1.body.00.722057533379368/transpose_1", "b3.b1.body.00.722057533379368/Reshape"], "attr": {"T": {"type": "DT_FLOAT"}}}, {"name": "b3.b1.body.10.32917752599238537/Relu", "op": "Relu", "input": ["b3.b1.body.00.722057533379368/add"], "attr": {"T": {"type": "DT_FLOAT"}}}, {"name": "b3.b1.body.20.24778832179532195_pad/Pad", "op": "Pad", "input": ["b3.b1.body.10.32917752599238537/Relu", "b3.b1.body.20.24778832179532195_pad/Pad/paddings"], "attr": {"T": {"type": "DT_FLOAT"}, "Tpaddings": {"type": "DT_INT32"}}}, {"name": "b3.b1.body.20.24778832179532195/transpose", "op": "Transpose", "input": ["b3.b1.body.20.24778832179532195_pad/Pad", "b3.b1.body.20.24778832179532195/transpose/perm"], "attr": {"Tperm": {"type": "DT_INT32"}, "T": {"type": "DT_FLOAT"}}}, {"name": "b3.b1.body.20.24778832179532195/convolution", "op": "Conv2D", "input": ["b3.b1.body.20.24778832179532195/transpose", "b3.b1.body.20.24778832179532195/kernel"], "device": "/device:CPU:0", "attr": {"use_cudnn_on_gpu": {"b": true}, "padding": {"s": "VkFMSUQ="}, "T": {"type": "DT_FLOAT"}, "explicit_paddings": {"list": {}}, "dilations": {"list": {"i": ["1", "1", "1", "1"]}}, "strides": {"list": {"i": ["1", "1", "1", "1"]}}, "data_format": {"s": "TkhXQw=="}}}, {"name": "b3.b1.body.20.24778832179532195/transpose_1", "op": "Transpose", "input": ["b3.b1.body.20.24778832179532195/convolution", "b3.b1.body.20.24778832179532195/transpose_1/perm"], "attr": {"Tperm": {"type": "DT_INT32"}, "T": {"type": "DT_FLOAT"}}}, {"name": "b3.b1.body.20.24778832179532195/add", "op": "Add", "input": ["b3.b1.body.20.24778832179532195/transpose_1", "b3.b1.body.20.24778832179532195/Reshape"], "attr": {"T": {"type": "DT_FLOAT"}}}, {"name": "b3.b10.09433562273483753/add", "op": "Add", "input": ["b3.b1.body.20.24778832179532195/add", "c2.body.10.4328447108684145/Relu"], "attr": {"T": {"type": "DT_FLOAT"}}}, {"name": "b3.b10.797804141023907/Relu", "op": "Relu", "input": ["b3.b10.09433562273483753/add"], "attr": {"T": {"type": "DT_FLOAT"}}}, {"name": "b30.6695398700609871/concat", "op": "ConcatV2", "input": ["c2.body.10.4328447108684145/Relu", "b3.b10.797804141023907/Relu", "b30.6695398700609871/concat/axis"], "attr": {"T": {"type": "DT_FLOAT"}, "N": {"i": "2"}, "Tidx": {"type": "DT_INT32"}}}, {"name": "b3.c1.body.00.45140252646004053/transpose", "op": "Transpose", "input": ["b30.6695398700609871/concat", "b3.c1.body.00.45140252646004053/transpose/perm"], "attr": {"Tperm": {"type": "DT_INT32"}, "T": {"type": "DT_FLOAT"}}}, {"name": "b3.c1.body.00.45140252646004053/convolution", "op": "Conv2D", "input": ["b3.c1.body.00.45140252646004053/transpose", "b3.c1.body.00.45140252646004053/kernel"], "device": "/device:CPU:0", "attr": {"explicit_paddings": {"list": {}}, "use_cudnn_on_gpu": {"b": true}, "strides": {"list": {"i": ["1", "1", "1", "1"]}}, "T": {"type": "DT_FLOAT"}, "data_format": {"s": "TkhXQw=="}, "padding": {"s": "VkFMSUQ="}, "dilations": {"list": {"i": ["1", "1", "1", "1"]}}}}, {"name": "b3.c1.body.00.45140252646004053/transpose_1", "op": "Transpose", "input": ["b3.c1.body.00.45140252646004053/convolution", "b3.c1.body.00.45140252646004053/transpose_1/perm"], "attr": {"T": {"type": "DT_FLOAT"}, "Tperm": {"type": "DT_INT32"}}}, {"name": "b3.c1.body.00.45140252646004053/add", "op": "Add", "input": ["b3.c1.body.00.45140252646004053/transpose_1", "b3.c1.body.00.45140252646004053/Reshape"], "attr": {"T": {"type": "DT_FLOAT"}}}, {"name": "b3.c1.body.10.7904980445297766/Relu", "op": "Relu", "input": ["b3.c1.body.00.45140252646004053/add"], "attr": {"T": {"type": "DT_FLOAT"}}}, {"name": "b3.b2.body.00.41845981387910525_pad/Pad", "op": "Pad", "input": ["b3.c1.body.10.7904980445297766/Relu", "b3.b2.body.00.41845981387910525_pad/Pad/paddings"], "attr": {"Tpaddings": {"type": "DT_INT32"}, "T": {"type": "DT_FLOAT"}}}, {"name": "b3.b2.body.00.41845981387910525/transpose", "op": "Transpose", "input": ["b3.b2.body.00.41845981387910525_pad/Pad", "b3.b2.body.00.41845981387910525/transpose/perm"], "attr": {"Tperm": {"type": "DT_INT32"}, "T": {"type": "DT_FLOAT"}}}, {"name": "b3.b2.body.00.41845981387910525/convolution", "op": "Conv2D", "input": ["b3.b2.body.00.41845981387910525/transpose", "b3.b2.body.00.41845981387910525/kernel"], "device": "/device:CPU:0", "attr": {"strides": {"list": {"i": ["1", "1", "1", "1"]}}, "explicit_paddings": {"list": {}}, "use_cudnn_on_gpu": {"b": true}, "dilations": {"list": {"i": ["1", "1", "1", "1"]}}, "data_format": {"s": "TkhXQw=="}, "padding": {"s": "VkFMSUQ="}, "T": {"type": "DT_FLOAT"}}}, {"name": "b3.b2.body.00.41845981387910525/transpose_1", "op": "Transpose", "input": ["b3.b2.body.00.41845981387910525/convolution", "b3.b2.body.00.41845981387910525/transpose_1/perm"], "attr": {"T": {"type": "DT_FLOAT"}, "Tperm": {"type": "DT_INT32"}}}, {"name": "b3.b2.body.00.41845981387910525/add", "op": "Add", "input": ["b3.b2.body.00.41845981387910525/transpose_1", "b3.b2.body.00.41845981387910525/Reshape"], "attr": {"T": {"type": "DT_FLOAT"}}}, {"name": "b3.b2.body.10.5867873036197757/Relu", "op": "Relu", "input": ["b3.b2.body.00.41845981387910525/add"], "attr": {"T": {"type": "DT_FLOAT"}}}, {"name": "b3.b2.body.20.5348977462763576_pad/Pad", "op": "Pad", "input": ["b3.b2.body.10.5867873036197757/Relu", "b3.b2.body.20.5348977462763576_pad/Pad/paddings"], "attr": {"Tpaddings": {"type": "DT_INT32"}, "T": {"type": "DT_FLOAT"}}}, {"name": "b3.b2.body.20.5348977462763576/transpose", "op": "Transpose", "input": ["b3.b2.body.20.5348977462763576_pad/Pad", "b3.b2.body.20.5348977462763576/transpose/perm"], "attr": {"Tperm": {"type": "DT_INT32"}, "T": {"type": "DT_FLOAT"}}}, {"name": "b3.b2.body.20.5348977462763576/convolution", "op": "Conv2D", "input": ["b3.b2.body.20.5348977462763576/transpose", "b3.b2.body.20.5348977462763576/kernel"], "device": "/device:CPU:0", "attr": {"dilations": {"list": {"i": ["1", "1", "1", "1"]}}, "T": {"type": "DT_FLOAT"}, "strides": {"list": {"i": ["1", "1", "1", "1"]}}, "padding": {"s": "VkFMSUQ="}, "use_cudnn_on_gpu": {"b": true}, "explicit_paddings": {"list": {}}, "data_format": {"s": "TkhXQw=="}}}, {"name": "b3.b2.body.20.5348977462763576/transpose_1", "op": "Transpose", "input": ["b3.b2.body.20.5348977462763576/convolution", "b3.b2.body.20.5348977462763576/transpose_1/perm"], "attr": {"Tperm": {"type": "DT_INT32"}, "T": {"type": "DT_FLOAT"}}}, {"name": "b3.b2.body.20.5348977462763576/add", "op": "Add", "input": ["b3.b2.body.20.5348977462763576/transpose_1", "b3.b2.body.20.5348977462763576/Reshape"], "attr": {"T": {"type": "DT_FLOAT"}}}, {"name": "b3.b20.4903438331950999/add", "op": "Add", "input": ["b3.b2.body.20.5348977462763576/add", "b3.c1.body.10.7904980445297766/Relu"], "attr": {"T": {"type": "DT_FLOAT"}}}, {"name": "b3.b20.2635851559884893/Relu", "op": "Relu", "input": ["b3.b20.4903438331950999/add"], "attr": {"T": {"type": "DT_FLOAT"}}}, {"name": "b30.3351955311328446/concat", "op": "ConcatV2", "input": ["b30.6695398700609871/concat", "b3.b20.2635851559884893/Relu", "b30.3351955311328446/concat/axis"], "attr": {"T": {"type": "DT_FLOAT"}, "Tidx": {"type": "DT_INT32"}, "N": {"i": "2"}}}, {"name": "b3.c2.body.00.9516376326010488/transpose", "op": "Transpose", "input": ["b30.3351955311328446/concat", "b3.c2.body.00.9516376326010488/transpose/perm"], "attr": {"T": {"type": "DT_FLOAT"}, "Tperm": {"type": "DT_INT32"}}}, {"name": "b3.c2.body.00.9516376326010488/convolution", "op": "Conv2D", "input": ["b3.c2.body.00.9516376326010488/transpose", "b3.c2.body.00.9516376326010488/kernel"], "device": "/device:CPU:0", "attr": {"T": {"type": "DT_FLOAT"}, "strides": {"list": {"i": ["1", "1", "1", "1"]}}, "dilations": {"list": {"i": ["1", "1", "1", "1"]}}, "data_format": {"s": "TkhXQw=="}, "use_cudnn_on_gpu": {"b": true}, "explicit_paddings": {"list": {}}, "padding": {"s": "VkFMSUQ="}}}, {"name": "b3.c2.body.00.9516376326010488/transpose_1", "op": "Transpose", "input": ["b3.c2.body.00.9516376326010488/convolution", "b3.c2.body.00.9516376326010488/transpose_1/perm"], "attr": {"Tperm": {"type": "DT_INT32"}, "T": {"type": "DT_FLOAT"}}}, {"name": "b3.c2.body.00.9516376326010488/add", "op": "Add", "input": ["b3.c2.body.00.9516376326010488/transpose_1", "b3.c2.body.00.9516376326010488/Reshape"], "attr": {"T": {"type": "DT_FLOAT"}}}, {"name": "b3.c2.body.10.43454898927588026/Relu", "op": "Relu", "input": ["b3.c2.body.00.9516376326010488/add"], "attr": {"T": {"type": "DT_FLOAT"}}}, {"name": "b3.b3.body.00.00453979460767695_pad/Pad", "op": "Pad", "input": ["b3.c2.body.10.43454898927588026/Relu", "b3.b3.body.00.00453979460767695_pad/Pad/paddings"], "attr": {"T": {"type": "DT_FLOAT"}, "Tpaddings": {"type": "DT_INT32"}}}, {"name": "b3.b3.body.00.00453979460767695/transpose", "op": "Transpose", "input": ["b3.b3.body.00.00453979460767695_pad/Pad", "b3.b3.body.00.00453979460767695/transpose/perm"], "attr": {"Tperm": {"type": "DT_INT32"}, "T": {"type": "DT_FLOAT"}}}, {"name": "b3.b3.body.00.00453979460767695/convolution", "op": "Conv2D", "input": ["b3.b3.body.00.00453979460767695/transpose", "b3.b3.body.00.00453979460767695/kernel"], "device": "/device:CPU:0", "attr": {"padding": {"s": "VkFMSUQ="}, "explicit_paddings": {"list": {}}, "data_format": {"s": "TkhXQw=="}, "strides": {"list": {"i": ["1", "1", "1", "1"]}}, "T": {"type": "DT_FLOAT"}, "dilations": {"list": {"i": ["1", "1", "1", "1"]}}, "use_cudnn_on_gpu": {"b": true}}}, {"name": "b3.b3.body.00.00453979460767695/transpose_1", "op": "Transpose", "input": ["b3.b3.body.00.00453979460767695/convolution", "b3.b3.body.00.00453979460767695/transpose_1/perm"], "attr": {"T": {"type": "DT_FLOAT"}, "Tperm": {"type": "DT_INT32"}}}, {"name": "b3.b3.body.00.00453979460767695/add", "op": "Add", "input": ["b3.b3.body.00.00453979460767695/transpose_1", "b3.b3.body.00.00453979460767695/Reshape"], "attr": {"T": {"type": "DT_FLOAT"}}}, {"name": "b3.b3.body.10.27108601216948214/Relu", "op": "Relu", "input": ["b3.b3.body.00.00453979460767695/add"], "attr": {"T": {"type": "DT_FLOAT"}}}, {"name": "b3.b3.body.20.25827230769909626_pad/Pad", "op": "Pad", "input": ["b3.b3.body.10.27108601216948214/Relu", "b3.b3.body.20.25827230769909626_pad/Pad/paddings"], "attr": {"T": {"type": "DT_FLOAT"}, "Tpaddings": {"type": "DT_INT32"}}}, {"name": "b3.b3.body.20.25827230769909626/transpose", "op": "Transpose", "input": ["b3.b3.body.20.25827230769909626_pad/Pad", "b3.b3.body.20.25827230769909626/transpose/perm"], "attr": {"Tperm": {"type": "DT_INT32"}, "T": {"type": "DT_FLOAT"}}}, {"name": "b3.b3.body.20.25827230769909626/convolution", "op": "Conv2D", "input": ["b3.b3.body.20.25827230769909626/transpose", "b3.b3.body.20.25827230769909626/kernel"], "device": "/device:CPU:0", "attr": {"data_format": {"s": "TkhXQw=="}, "padding": {"s": "VkFMSUQ="}, "T": {"type": "DT_FLOAT"}, "dilations": {"list": {"i": ["1", "1", "1", "1"]}}, "strides": {"list": {"i": ["1", "1", "1", "1"]}}, "use_cudnn_on_gpu": {"b": true}, "explicit_paddings": {"list": {}}}}, {"name": "b3.b3.body.20.25827230769909626/transpose_1", "op": "Transpose", "input": ["b3.b3.body.20.25827230769909626/convolution", "b3.b3.body.20.25827230769909626/transpose_1/perm"], "attr": {"T": {"type": "DT_FLOAT"}, "Tperm": {"type": "DT_INT32"}}}, {"name": "b3.b3.body.20.25827230769909626/add", "op": "Add", "input": ["b3.b3.body.20.25827230769909626/transpose_1", "b3.b3.body.20.25827230769909626/Reshape"], "attr": {"T": {"type": "DT_FLOAT"}}}, {"name": "b3.b30.5730726349775627/add", "op": "Add", "input": ["b3.b3.body.20.25827230769909626/add", "b3.c2.body.10.43454898927588026/Relu"], "attr": {"T": {"type": "DT_FLOAT"}}}, {"name": "b3.b30.06874168612287768/Relu", "op": "Relu", "input": ["b3.b30.5730726349775627/add"], "attr": {"T": {"type": "DT_FLOAT"}}}, {"name": "b30.774364477137635/concat", "op": "ConcatV2", "input": ["b30.3351955311328446/concat", "b3.b30.06874168612287768/Relu", "b30.774364477137635/concat/axis"], "attr": {"N": {"i": "2"}, "Tidx": {"type": "DT_INT32"}, "T": {"type": "DT_FLOAT"}}}, {"name": "b3.c3.body.00.2028034081180673/transpose", "op": "Transpose", "input": ["b30.774364477137635/concat", "b3.c3.body.00.2028034081180673/transpose/perm"], "attr": {"Tperm": {"type": "DT_INT32"}, "T": {"type": "DT_FLOAT"}}}, {"name": "b3.c3.body.00.2028034081180673/convolution", "op": "Conv2D", "input": ["b3.c3.body.00.2028034081180673/transpose", "b3.c3.body.00.2028034081180673/kernel"], "device": "/device:CPU:0", "attr": {"strides": {"list": {"i": ["1", "1", "1", "1"]}}, "explicit_paddings": {"list": {}}, "T": {"type": "DT_FLOAT"}, "padding": {"s": "VkFMSUQ="}, "dilations": {"list": {"i": ["1", "1", "1", "1"]}}, "use_cudnn_on_gpu": {"b": true}, "data_format": {"s": "TkhXQw=="}}}, {"name": "b3.c3.body.00.2028034081180673/transpose_1", "op": "Transpose", "input": ["b3.c3.body.00.2028034081180673/convolution", "b3.c3.body.00.2028034081180673/transpose_1/perm"], "attr": {"T": {"type": "DT_FLOAT"}, "Tperm": {"type": "DT_INT32"}}}, {"name": "b3.c3.body.00.2028034081180673/add", "op": "Add", "input": ["b3.c3.body.00.2028034081180673/transpose_1", "b3.c3.body.00.2028034081180673/Reshape"], "attr": {"T": {"type": "DT_FLOAT"}}}, {"name": "b3.c3.body.10.5775508100954981/Relu", "op": "Relu", "input": ["b3.c3.body.00.2028034081180673/add"], "attr": {"T": {"type": "DT_FLOAT"}}}, {"name": "0.07523256857019289/concat", "op": "ConcatV2", "input": ["0.745294373906827/concat", "b3.c3.body.10.5775508100954981/Relu", "0.07523256857019289/concat/axis"], "attr": {"Tidx": {"type": "DT_INT32"}, "N": {"i": "2"}, "T": {"type": "DT_FLOAT"}}}, {"name": "c3.body.00.04619909734415062/transpose", "op": "Transpose", "input": ["0.07523256857019289/concat", "c3.body.00.04619909734415062/transpose/perm"], "attr": {"Tperm": {"type": "DT_INT32"}, "T": {"type": "DT_FLOAT"}}}, {"name": "c3.body.00.04619909734415062/convolution", "op": "Conv2D", "input": ["c3.body.00.04619909734415062/transpose", "c3.body.00.04619909734415062/kernel"], "device": "/device:CPU:0", "attr": {"strides": {"list": {"i": ["1", "1", "1", "1"]}}, "use_cudnn_on_gpu": {"b": true}, "explicit_paddings": {"list": {}}, "dilations": {"list": {"i": ["1", "1", "1", "1"]}}, "T": {"type": "DT_FLOAT"}, "data_format": {"s": "TkhXQw=="}, "padding": {"s": "VkFMSUQ="}}}, {"name": "c3.body.00.04619909734415062/transpose_1", "op": "Transpose", "input": ["c3.body.00.04619909734415062/convolution", "c3.body.00.04619909734415062/transpose_1/perm"], "attr": {"T": {"type": "DT_FLOAT"}, "Tperm": {"type": "DT_INT32"}}}, {"name": "c3.body.00.04619909734415062/add", "op": "Add", "input": ["c3.body.00.04619909734415062/transpose_1", "c3.body.00.04619909734415062/Reshape"], "attr": {"T": {"type": "DT_FLOAT"}}}, {"name": "c3.body.10.40978014437584775/Relu", "op": "Relu", "input": ["c3.body.00.04619909734415062/add"], "attr": {"T": {"type": "DT_FLOAT"}}}, {"name": "upsample.up2.body.00.4599539711629431_pad/Pad", "op": "Pad", "input": ["c3.body.10.40978014437584775/Relu", "upsample.up2.body.00.4599539711629431_pad/Pad/paddings"], "attr": {"Tpaddings": {"type": "DT_INT32"}, "T": {"type": "DT_FLOAT"}}}, {"name": "upsample.up2.body.00.4599539711629431/transpose", "op": "Transpose", "input": ["upsample.up2.body.00.4599539711629431_pad/Pad", "upsample.up2.body.00.4599539711629431/transpose/perm"], "attr": {"Tperm": {"type": "DT_INT32"}, "T": {"type": "DT_FLOAT"}}}, {"name": "upsample.up2.body.00.4599539711629431/convolution", "op": "Conv2D", "input": ["upsample.up2.body.00.4599539711629431/transpose", "upsample.up2.body.00.4599539711629431/kernel"], "device": "/device:CPU:0", "attr": {"T": {"type": "DT_FLOAT"}, "use_cudnn_on_gpu": {"b": true}, "data_format": {"s": "TkhXQw=="}, "padding": {"s": "VkFMSUQ="}, "explicit_paddings": {"list": {}}, "strides": {"list": {"i": ["1", "1", "1", "1"]}}, "dilations": {"list": {"i": ["1", "1", "1", "1"]}}}}, {"name": "upsample.up2.body.00.4599539711629431/transpose_1", "op": "Transpose", "input": ["upsample.up2.body.00.4599539711629431/convolution", "upsample.up2.body.00.4599539711629431/transpose_1/perm"], "attr": {"Tperm": {"type": "DT_INT32"}, "T": {"type": "DT_FLOAT"}}}, {"name": "upsample.up2.body.00.4599539711629431/add", "op": "Add", "input": ["upsample.up2.body.00.4599539711629431/transpose_1", "upsample.up2.body.00.4599539711629431/Reshape"], "attr": {"T": {"type": "DT_FLOAT"}}}, {"name": "upsample.up2.body.10.6320789698183874/Relu", "op": "Relu", "input": ["upsample.up2.body.00.4599539711629431/add"], "attr": {"T": {"type": "DT_FLOAT"}}}, {"name": "lambda_1/Shape", "op": "Shape", "input": ["upsample.up2.body.10.6320789698183874/Relu"], "attr": {"T": {"type": "DT_FLOAT"}, "out_type": {"type": "DT_INT32"}}}, {"name": "lambda_4/Shape", "op": "Shape", "input": ["upsample.up2.body.10.6320789698183874/Relu"], "attr": {"out_type": {"type": "DT_INT32"}, "T": {"type": "DT_FLOAT"}}}, {"name": "lambda_7/Shape", "op": "Shape", "input": ["upsample.up2.body.10.6320789698183874/Relu"], "attr": {"out_type": {"type": "DT_INT32"}, "T": {"type": "DT_FLOAT"}}}, {"name": "lambda_10/Shape", "op": "Shape", "input": ["upsample.up2.body.10.6320789698183874/Relu"], "attr": {"T": {"type": "DT_FLOAT"}, "out_type": {"type": "DT_INT32"}}}, {"name": "lambda_2/strided_slice", "op": "StridedSlice", "input": ["lambda_1/Shape", "lambda_2/strided_slice/stack", "lambda_2/strided_slice/stack_1", "lambda_2/strided_slice/stack_2"], "attr": {"begin_mask": {"i": "0"}, "end_mask": {"i": "0"}, "ellipsis_mask": {"i": "0"}, "new_axis_mask": {"i": "0"}, "T": {"type": "DT_INT32"}, "Index": {"type": "DT_INT32"}, "shrink_axis_mask": {"i": "0"}}}, {"name": "lambda_5/strided_slice", "op": "StridedSlice", "input": ["lambda_4/Shape", "lambda_5/strided_slice/stack", "lambda_5/strided_slice/stack_1", "lambda_5/strided_slice/stack_2"], "attr": {"end_mask": {"i": "0"}, "new_axis_mask": {"i": "0"}, "Index": {"type": "DT_INT32"}, "shrink_axis_mask": {"i": "0"}, "begin_mask": {"i": "0"}, "ellipsis_mask": {"i": "0"}, "T": {"type": "DT_INT32"}}}, {"name": "lambda_8/strided_slice", "op": "StridedSlice", "input": ["lambda_7/Shape", "lambda_8/strided_slice/stack", "lambda_8/strided_slice/stack_1", "lambda_8/strided_slice/stack_2"], "attr": {"end_mask": {"i": "0"}, "begin_mask": {"i": "0"}, "T": {"type": "DT_INT32"}, "shrink_axis_mask": {"i": "0"}, "Index": {"type": "DT_INT32"}, "new_axis_mask": {"i": "0"}, "ellipsis_mask": {"i": "0"}}}, {"name": "lambda_11/strided_slice", "op": "StridedSlice", "input": ["lambda_10/Shape", "lambda_11/strided_slice/stack", "lambda_11/strided_slice/stack_1", "lambda_11/strided_slice/stack_2"], "attr": {"new_axis_mask": {"i": "0"}, "end_mask": {"i": "0"}, "T": {"type": "DT_INT32"}, "shrink_axis_mask": {"i": "0"}, "begin_mask": {"i": "0"}, "ellipsis_mask": {"i": "0"}, "Index": {"type": "DT_INT32"}}}, {"name": "lambda_3/Squeeze", "op": "Squeeze", "input": ["lambda_2/strided_slice"], "attr": {"T": {"type": "DT_INT32"}, "squeeze_dims": {"list": {"i": ["0"]}}}}, {"name": "lambda_6/Squeeze", "op": "Squeeze", "input": ["lambda_5/strided_slice"], "attr": {"squeeze_dims": {"list": {"i": ["0"]}}, "T": {"type": "DT_INT32"}}}, {"name": "lambda_9/Squeeze", "op": "Squeeze", "input": ["lambda_8/strided_slice"], "attr": {"squeeze_dims": {"list": {"i": ["0"]}}, "T": {"type": "DT_INT32"}}}, {"name": "lambda_12/Squeeze", "op": "Squeeze", "input": ["lambda_11/strided_slice"], "attr": {"T": {"type": "DT_INT32"}, "squeeze_dims": {"list": {"i": ["0"]}}}}, {"name": "upsample.up2.body.20.4766618204419172E/ExpandDims", "op": "ExpandDims", "input": ["lambda_3/Squeeze", "upsample.up2.body.20.4766618204419172E/ExpandDims/dim"], "attr": {"Tdim": {"type": "DT_INT32"}, "T": {"type": "DT_INT32"}}}, {"name": "upsample.up2.body.20.7554306878451601E/ExpandDims", "op": "ExpandDims", "input": ["lambda_3/Squeeze", "upsample.up2.body.20.7554306878451601E/ExpandDims/dim"], "attr": {"Tdim": {"type": "DT_INT32"}, "T": {"type": "DT_INT32"}}}, {"name": "upsample.up2.body.20.7391070425837797/div", "op": "FloorDiv", "input": ["lambda_6/Squeeze", "lambda_13/Const"], "attr": {"T": {"type": "DT_INT32"}}}, {"name": "upsample.up2.body.20.350880110526133E/ExpandDims", "op": "ExpandDims", "input": ["lambda_9/Squeeze", "upsample.up2.body.20.350880110526133E/ExpandDims/dim"], "attr": {"T": {"type": "DT_INT32"}, "Tdim": {"type": "DT_INT32"}}}, {"name": "upsample.up2.body.20.6348766988549195/Mul", "op": "Mul", "input": ["lambda_9/Squeeze", "lambda_14/Const"], "attr": {"T": {"type": "DT_INT32"}}}, {"name": "upsample.up2.body.20.12190041661671691E/ExpandDims", "op": "ExpandDims", "input": ["lambda_12/Squeeze", "upsample.up2.body.20.12190041661671691E/ExpandDims/dim"], "attr": {"T": {"type": "DT_INT32"}, "Tdim": {"type": "DT_INT32"}}}, {"name": "upsample.up2.body.20.21619300046850476/Mul", "op": "Mul", "input": ["lambda_12/Squeeze", "lambda_15/Const"], "attr": {"T": {"type": "DT_INT32"}}}, {"name": "upsample.up2.body.20.8571187596648581E/ExpandDims", "op": "ExpandDims", "input": ["upsample.up2.body.20.7391070425837797/div", "upsample.up2.body.20.8571187596648581E/ExpandDims/dim"], "attr": {"Tdim": {"type": "DT_INT32"}, "T": {"type": "DT_INT32"}}}, {"name": "upsample.up2.body.20.07153664925914338E/ExpandDims", "op": "ExpandDims", "input": ["upsample.up2.body.20.7391070425837797/div", "upsample.up2.body.20.07153664925914338E/ExpandDims/dim"], "attr": {"Tdim": {"type": "DT_INT32"}, "T": {"type": "DT_INT32"}}}, {"name": "upsample.up2.body.20.6008254443567683E/ExpandDims", "op": "ExpandDims", "input": ["upsample.up2.body.20.6348766988549195/Mul", "upsample.up2.body.20.6008254443567683E/ExpandDims/dim"], "attr": {"Tdim": {"type": "DT_INT32"}, "T": {"type": "DT_INT32"}}}, {"name": "upsample.up2.body.20.3303673637302097E/ExpandDims", "op": "ExpandDims", "input": ["upsample.up2.body.20.21619300046850476/Mul", "upsample.up2.body.20.3303673637302097E/ExpandDims/dim"], "attr": {"Tdim": {"type": "DT_INT32"}, "T": {"type": "DT_INT32"}}}, {"name": "upsample.up2.body.20.04234313709622339/concat", "op": "ConcatV2", "input": ["upsample.up2.body.20.4766618204419172E/ExpandDims", "upsample.up2.body.20.8571187596648581E/ExpandDims", "ConstantFolding/upsample.up2.body.20.04234313709622339/concat_partial_split_2", "upsample.up2.body.20.350880110526133E/ExpandDims", "upsample.up2.body.20.12190041661671691E/ExpandDims", "upsample.up2.body.20.04234313709622339/concat/axis"], "attr": {"T": {"type": "DT_INT32"}, "N": {"i": "5"}, "Tidx": {"type": "DT_INT32"}}}, {"name": "upsample.up2.body.20.23829645161567448/concat", "op": "ConcatV2", "input": ["upsample.up2.body.20.7554306878451601E/ExpandDims", "upsample.up2.body.20.07153664925914338E/ExpandDims", "upsample.up2.body.20.6008254443567683E/ExpandDims", "upsample.up2.body.20.3303673637302097E/ExpandDims", "upsample.up2.body.20.23829645161567448/concat/axis"], "attr": {"T": {"type": "DT_INT32"}, "N": {"i": "4"}, "Tidx": {"type": "DT_INT32"}}}, {"name": "lambda_18/Reshape", "op": "Reshape", "input": ["upsample.up2.body.10.6320789698183874/Relu", "upsample.up2.body.20.04234313709622339/concat"], "attr": {"Tshape": {"type": "DT_INT32"}, "T": {"type": "DT_FLOAT"}}}, {"name": "upsample.up2.body.20.052715441586288714/transpose", "op": "Transpose", "input": ["lambda_18/Reshape", "upsample.up2.body.20.052715441586288714/transpose/perm"], "attr": {"T": {"type": "DT_FLOAT"}, "Tperm": {"type": "DT_INT32"}}}, {"name": "lambda_19/Reshape", "op": "Reshape", "input": ["upsample.up2.body.20.052715441586288714/transpose", "upsample.up2.body.20.23829645161567448/concat"], "attr": {"Tshape": {"type": "DT_INT32"}, "T": {"type": "DT_FLOAT"}}}, {"name": "exit0.3884727939701078_pad/Pad", "op": "Pad", "input": ["lambda_19/Reshape", "exit0.3884727939701078_pad/Pad/paddings"], "attr": {"T": {"type": "DT_FLOAT"}, "Tpaddings": {"type": "DT_INT32"}}}, {"name": "exit0.3884727939701078/transpose", "op": "Transpose", "input": ["exit0.3884727939701078_pad/Pad", "exit0.3884727939701078/transpose/perm"], "attr": {"Tperm": {"type": "DT_INT32"}, "T": {"type": "DT_FLOAT"}}}, {"name": "exit0.3884727939701078/convolution", "op": "Conv2D", "input": ["exit0.3884727939701078/transpose", "exit0.3884727939701078/kernel"], "device": "/device:CPU:0", "attr": {"padding": {"s": "VkFMSUQ="}, "dilations": {"list": {"i": ["1", "1", "1", "1"]}}, "data_format": {"s": "TkhXQw=="}, "strides": {"list": {"i": ["1", "1", "1", "1"]}}, "T": {"type": "DT_FLOAT"}, "use_cudnn_on_gpu": {"b": true}, "explicit_paddings": {"list": {}}}}, {"name": "exit0.3884727939701078/transpose_1", "op": "Transpose", "input": ["exit0.3884727939701078/convolution", "exit0.3884727939701078/transpose_1/perm"], "attr": {"T": {"type": "DT_FLOAT"}, "Tperm": {"type": "DT_INT32"}}}, {"name": "exit0.3884727939701078/add", "op": "Add", "input": ["exit0.3884727939701078/transpose_1", "exit0.3884727939701078/Reshape"], "attr": {"T": {"type": "DT_FLOAT"}}}, {"name": "add_mean.shifter0.8099212878749612/transpose", "op": "Transpose", "input": ["exit0.3884727939701078/add", "add_mean.shifter0.8099212878749612/transpose/perm"], "attr": {"T": {"type": "DT_FLOAT"}, "Tperm": {"type": "DT_INT32"}}}, {"name": "add_mean.shifter0.8099212878749612/convolution", "op": "Conv2D", "input": ["add_mean.shifter0.8099212878749612/transpose", "add_mean.shifter0.8099212878749612/kernel"], "device": "/device:CPU:0", "attr": {"strides": {"list": {"i": ["1", "1", "1", "1"]}}, "explicit_paddings": {"list": {}}, "dilations": {"list": {"i": ["1", "1", "1", "1"]}}, "use_cudnn_on_gpu": {"b": true}, "padding": {"s": "VkFMSUQ="}, "data_format": {"s": "TkhXQw=="}, "T": {"type": "DT_FLOAT"}}}, {"name": "add_mean.shifter0.8099212878749612/transpose_1", "op": "Transpose", "input": ["add_mean.shifter0.8099212878749612/convolution", "add_mean.shifter0.8099212878749612/transpose_1/perm"], "attr": {"Tperm": {"type": "DT_INT32"}, "T": {"type": "DT_FLOAT"}}}, {"name": "add_mean.shifter0.8099212878749612/add", "op": "Add", "input": ["add_mean.shifter0.8099212878749612/transpose_1", "add_mean.shifter0.8099212878749612/Reshape"], "attr": {"T": {"type": "DT_FLOAT"}}}, {"name": "sr_output", "op": "Identity", "input": ["add_mean.shifter0.8099212878749612/add"], "attr": {"T": {"type": "DT_FLOAT"}}}], "library": {}, "versions": {"producer": 561}}, "weightsManifest": [{"paths": ["group1-shard1of1.bin"], "weights": [{"name": "upsample.up2.body.20.4766618204419172E/ExpandDims/dim", "shape": [], "dtype": "int32"}, {"name": "upsample.up2.body.20.8571187596648581E/ExpandDims/dim", "shape": [], "dtype": "int32"}, {"name": "ConstantFolding/upsample.up2.body.20.04234313709622339/concat_partial_split_2", "shape": [2], "dtype": "int32"}, {"name": "upsample.up2.body.20.350880110526133E/ExpandDims/dim", "shape": [], "dtype": "int32"}, {"name": "upsample.up2.body.20.12190041661671691E/ExpandDims/dim", "shape": [], "dtype": "int32"}, {"name": "upsample.up2.body.20.04234313709622339/concat/axis", "shape": [], "dtype": "int32"}, {"name": "upsample.up2.body.20.052715441586288714/transpose/perm", "shape": [6], "dtype": "int32"}, {"name": "lambda_2/strided_slice/stack", "shape": [1], "dtype": "int32"}, {"name": "lambda_2/strided_slice/stack_1", "shape": [1], "dtype": "int32"}, {"name": "lambda_2/strided_slice/stack_2", "shape": [1], "dtype": "int32"}, {"name": "upsample.up2.body.20.7554306878451601E/ExpandDims/dim", "shape": [], "dtype": "int32"}, {"name": "lambda_5/strided_slice/stack", "shape": [1], "dtype": "int32"}, {"name": "lambda_5/strided_slice/stack_1", "shape": [1], "dtype": "int32"}, {"name": "lambda_5/strided_slice/stack_2", "shape": [1], "dtype": "int32"}, {"name": "lambda_13/Const", "shape": [], "dtype": "int32"}, {"name": "upsample.up2.body.20.07153664925914338E/ExpandDims/dim", "shape": [], "dtype": "int32"}, {"name": "lambda_8/strided_slice/stack", "shape": [1], "dtype": "int32"}, {"name": "lambda_8/strided_slice/stack_1", "shape": [1], "dtype": "int32"}, {"name": "lambda_8/strided_slice/stack_2", "shape": [1], "dtype": "int32"}, {"name": "lambda_14/Const", "shape": [], "dtype": "int32"}, {"name": "upsample.up2.body.20.6008254443567683E/ExpandDims/dim", "shape": [], "dtype": "int32"}, {"name": "b3.b3.body.00.00453979460767695_pad/Pad/paddings", "shape": [4, 2], "dtype": "int32"}, {"name": "b3.b3.body.00.00453979460767695/transpose/perm", "shape": [4], "dtype": "int32"}, {"name": "b3.b3.body.00.00453979460767695/kernel", "shape": [3, 3, 64, 64], "dtype": "float32"}, {"name": "b3.b3.body.00.00453979460767695/transpose_1/perm", "shape": [4], "dtype": "int32"}, {"name": "b3.b3.body.00.00453979460767695/Reshape", "shape": [1, 64, 1, 1], "dtype": "float32"}, {"name": "b3.b3.body.20.25827230769909626_pad/Pad/paddings", "shape": [4, 2], "dtype": "int32"}, {"name": "b3.b3.body.20.25827230769909626/transpose/perm", "shape": [4], "dtype": "int32"}, {"name": "b3.b3.body.20.25827230769909626/kernel", "shape": [3, 3, 64, 64], "dtype": "float32"}, {"name": "b3.b3.body.20.25827230769909626/transpose_1/perm", "shape": [4], "dtype": "int32"}, {"name": "b3.b3.body.20.25827230769909626/Reshape", "shape": [1, 64, 1, 1], "dtype": "float32"}, {"name": "b3.b2.body.00.41845981387910525_pad/Pad/paddings", "shape": [4, 2], "dtype": "int32"}, {"name": "b3.b2.body.00.41845981387910525/transpose/perm", "shape": [4], "dtype": "int32"}, {"name": "b3.b2.body.00.41845981387910525/kernel", "shape": [3, 3, 64, 64], "dtype": "float32"}, {"name": "b3.b2.body.00.41845981387910525/transpose_1/perm", "shape": [4], "dtype": "int32"}, {"name": "b3.b2.body.00.41845981387910525/Reshape", "shape": [1, 64, 1, 1], "dtype": "float32"}, {"name": "b3.b2.body.20.5348977462763576_pad/Pad/paddings", "shape": [4, 2], "dtype": "int32"}, {"name": "b3.b2.body.20.5348977462763576/transpose/perm", "shape": [4], "dtype": "int32"}, {"name": "b3.b2.body.20.5348977462763576/kernel", "shape": [3, 3, 64, 64], "dtype": "float32"}, {"name": "b3.b2.body.20.5348977462763576/transpose_1/perm", "shape": [4], "dtype": "int32"}, {"name": "b3.b2.body.20.5348977462763576/Reshape", "shape": [1, 64, 1, 1], "dtype": "float32"}, {"name": "b3.b1.body.00.722057533379368_pad/Pad/paddings", "shape": [4, 2], "dtype": "int32"}, {"name": "b3.b1.body.00.722057533379368/transpose/perm", "shape": [4], "dtype": "int32"}, {"name": "b3.b1.body.00.722057533379368/kernel", "shape": [3, 3, 64, 64], "dtype": "float32"}, {"name": "b3.b1.body.00.722057533379368/transpose_1/perm", "shape": [4], "dtype": "int32"}, {"name": "b3.b1.body.00.722057533379368/Reshape", "shape": [1, 64, 1, 1], "dtype": "float32"}, {"name": "b3.b1.body.20.24778832179532195_pad/Pad/paddings", "shape": [4, 2], "dtype": "int32"}, {"name": "b3.b1.body.20.24778832179532195/transpose/perm", "shape": [4], "dtype": "int32"}, {"name": "b3.b1.body.20.24778832179532195/kernel", "shape": [3, 3, 64, 64], "dtype": "float32"}, {"name": "b3.b1.body.20.24778832179532195/transpose_1/perm", "shape": [4], "dtype": "int32"}, {"name": "b3.b1.body.20.24778832179532195/Reshape", "shape": [1, 64, 1, 1], "dtype": "float32"}, {"name": "b2.b3.body.00.006913251005958965_pad/Pad/paddings", "shape": [4, 2], "dtype": "int32"}, {"name": "b2.b3.body.00.006913251005958965/transpose/perm", "shape": [4], "dtype": "int32"}, {"name": "b2.b3.body.00.006913251005958965/kernel", "shape": [3, 3, 64, 64], "dtype": "float32"}, {"name": "b2.b3.body.00.006913251005958965/transpose_1/perm", "shape": [4], "dtype": "int32"}, {"name": "b2.b3.body.00.006913251005958965/Reshape", "shape": [1, 64, 1, 1], "dtype": "float32"}, {"name": "b2.b3.body.20.6037477351947089_pad/Pad/paddings", "shape": [4, 2], "dtype": "int32"}, {"name": "b2.b3.body.20.6037477351947089/transpose/perm", "shape": [4], "dtype": "int32"}, {"name": "b2.b3.body.20.6037477351947089/kernel", "shape": [3, 3, 64, 64], "dtype": "float32"}, {"name": "b2.b3.body.20.6037477351947089/transpose_1/perm", "shape": [4], "dtype": "int32"}, {"name": "b2.b3.body.20.6037477351947089/Reshape", "shape": [1, 64, 1, 1], "dtype": "float32"}, {"name": "b2.b2.body.00.8514351312591644_pad/Pad/paddings", "shape": [4, 2], "dtype": "int32"}, {"name": "b2.b2.body.00.8514351312591644/transpose/perm", "shape": [4], "dtype": "int32"}, {"name": "b2.b2.body.00.8514351312591644/kernel", "shape": [3, 3, 64, 64], "dtype": "float32"}, {"name": "b2.b2.body.00.8514351312591644/transpose_1/perm", "shape": [4], "dtype": "int32"}, {"name": "b2.b2.body.00.8514351312591644/Reshape", "shape": [1, 64, 1, 1], "dtype": "float32"}, {"name": "b2.b2.body.20.7594478019234668_pad/Pad/paddings", "shape": [4, 2], "dtype": "int32"}, {"name": "b2.b2.body.20.7594478019234668/transpose/perm", "shape": [4], "dtype": "int32"}, {"name": "b2.b2.body.20.7594478019234668/kernel", "shape": [3, 3, 64, 64], "dtype": "float32"}, {"name": "b2.b2.body.20.7594478019234668/transpose_1/perm", "shape": [4], "dtype": "int32"}, {"name": "b2.b2.body.20.7594478019234668/Reshape", "shape": [1, 64, 1, 1], "dtype": "float32"}, {"name": "b2.b1.body.00.3346376479106308_pad/Pad/paddings", "shape": [4, 2], "dtype": "int32"}, {"name": "b2.b1.body.00.3346376479106308/transpose/perm", "shape": [4], "dtype": "int32"}, {"name": "b2.b1.body.00.3346376479106308/kernel", "shape": [3, 3, 64, 64], "dtype": "float32"}, {"name": "b2.b1.body.00.3346376479106308/transpose_1/perm", "shape": [4], "dtype": "int32"}, {"name": "b2.b1.body.00.3346376479106308/Reshape", "shape": [1, 64, 1, 1], "dtype": "float32"}, {"name": "b2.b1.body.20.054997286777011656_pad/Pad/paddings", "shape": [4, 2], "dtype": "int32"}, {"name": "b2.b1.body.20.054997286777011656/transpose/perm", "shape": [4], "dtype": "int32"}, {"name": "b2.b1.body.20.054997286777011656/kernel", "shape": [3, 3, 64, 64], "dtype": "float32"}, {"name": "b2.b1.body.20.054997286777011656/transpose_1/perm", "shape": [4], "dtype": "int32"}, {"name": "b2.b1.body.20.054997286777011656/Reshape", "shape": [1, 64, 1, 1], "dtype": "float32"}, {"name": "b1.b3.body.00.45651423535683444_pad/Pad/paddings", "shape": [4, 2], "dtype": "int32"}, {"name": "b1.b3.body.00.45651423535683444/transpose/perm", "shape": [4], "dtype": "int32"}, {"name": "b1.b3.body.00.45651423535683444/kernel", "shape": [3, 3, 64, 64], "dtype": "float32"}, {"name": "b1.b3.body.00.45651423535683444/transpose_1/perm", "shape": [4], "dtype": "int32"}, {"name": "b1.b3.body.00.45651423535683444/Reshape", "shape": [1, 64, 1, 1], "dtype": "float32"}, {"name": "b1.b3.body.20.73753430170241_pad/Pad/paddings", "shape": [4, 2], "dtype": "int32"}, {"name": "b1.b3.body.20.73753430170241/transpose/perm", "shape": [4], "dtype": "int32"}, {"name": "b1.b3.body.20.73753430170241/kernel", "shape": [3, 3, 64, 64], "dtype": "float32"}, {"name": "b1.b3.body.20.73753430170241/transpose_1/perm", "shape": [4], "dtype": "int32"}, {"name": "b1.b3.body.20.73753430170241/Reshape", "shape": [1, 64, 1, 1], "dtype": "float32"}, {"name": "b1.b2.body.00.6520323299054688_pad/Pad/paddings", "shape": [4, 2], "dtype": "int32"}, {"name": "b1.b2.body.00.6520323299054688/transpose/perm", "shape": [4], "dtype": "int32"}, {"name": "b1.b2.body.00.6520323299054688/kernel", "shape": [3, 3, 64, 64], "dtype": "float32"}, {"name": "b1.b2.body.00.6520323299054688/transpose_1/perm", "shape": [4], "dtype": "int32"}, {"name": "b1.b2.body.00.6520323299054688/Reshape", "shape": [1, 64, 1, 1], "dtype": "float32"}, {"name": "b1.b2.body.20.3078011901505564_pad/Pad/paddings", "shape": [4, 2], "dtype": "int32"}, {"name": "b1.b2.body.20.3078011901505564/transpose/perm", "shape": [4], "dtype": "int32"}, {"name": "b1.b2.body.20.3078011901505564/kernel", "shape": [3, 3, 64, 64], "dtype": "float32"}, {"name": "b1.b2.body.20.3078011901505564/transpose_1/perm", "shape": [4], "dtype": "int32"}, {"name": "b1.b2.body.20.3078011901505564/Reshape", "shape": [1, 64, 1, 1], "dtype": "float32"}, {"name": "b1.b1.body.00.37783620027621834_pad/Pad/paddings", "shape": [4, 2], "dtype": "int32"}, {"name": "b1.b1.body.00.37783620027621834/transpose/perm", "shape": [4], "dtype": "int32"}, {"name": "b1.b1.body.00.37783620027621834/kernel", "shape": [3, 3, 64, 64], "dtype": "float32"}, {"name": "b1.b1.body.00.37783620027621834/transpose_1/perm", "shape": [4], "dtype": "int32"}, {"name": "b1.b1.body.00.37783620027621834/Reshape", "shape": [1, 64, 1, 1], "dtype": "float32"}, {"name": "b1.b1.body.20.8783524404492908_pad/Pad/paddings", "shape": [4, 2], "dtype": "int32"}, {"name": "b1.b1.body.20.8783524404492908/transpose/perm", "shape": [4], "dtype": "int32"}, {"name": "b1.b1.body.20.8783524404492908/kernel", "shape": [3, 3, 64, 64], "dtype": "float32"}, {"name": "b1.b1.body.20.8783524404492908/transpose_1/perm", "shape": [4], "dtype": "int32"}, {"name": "b1.b1.body.20.8783524404492908/Reshape", "shape": [1, 64, 1, 1], "dtype": "float32"}, {"name": "sub_mean.shifter0.6454831648344069/transpose/perm", "shape": [4], "dtype": "int32"}, {"name": "sub_mean.shifter0.6454831648344069/kernel", "shape": [1, 1, 3, 3], "dtype": "float32"}, {"name": "sub_mean.shifter0.6454831648344069/transpose_1/perm", "shape": [4], "dtype": "int32"}, {"name": "sub_mean.shifter0.6454831648344069/Reshape", "shape": [1, 3, 1, 1], "dtype": "float32"}, {"name": "entry0.7458910525432818_pad/Pad/paddings", "shape": [4, 2], "dtype": "int32"}, {"name": "entry0.7458910525432818/transpose/perm", "shape": [4], "dtype": "int32"}, {"name": "entry0.7458910525432818/kernel", "shape": [3, 3, 3, 64], "dtype": "float32"}, {"name": "entry0.7458910525432818/transpose_1/perm", "shape": [4], "dtype": "int32"}, {"name": "entry0.7458910525432818/Reshape", "shape": [1, 64, 1, 1], "dtype": "float32"}, {"name": "b10.7083292562416083/concat/axis", "shape": [], "dtype": "int32"}, {"name": "b1.c1.body.00.8432475802897582/transpose/perm", "shape": [4], "dtype": "int32"}, {"name": "b1.c1.body.00.8432475802897582/kernel", "shape": [1, 1, 128, 64], "dtype": "float32"}, {"name": "b1.c1.body.00.8432475802897582/transpose_1/perm", "shape": [4], "dtype": "int32"}, {"name": "b1.c1.body.00.8432475802897582/Reshape", "shape": [1, 64, 1, 1], "dtype": "float32"}, {"name": "b10.3286765880998359/concat/axis", "shape": [], "dtype": "int32"}, {"name": "b1.c2.body.00.43531056176473415/transpose/perm", "shape": [4], "dtype": "int32"}, {"name": "b1.c2.body.00.43531056176473415/kernel", "shape": [1, 1, 192, 64], "dtype": "float32"}, {"name": "b1.c2.body.00.43531056176473415/transpose_1/perm", "shape": [4], "dtype": "int32"}, {"name": "b1.c2.body.00.43531056176473415/Reshape", "shape": [1, 64, 1, 1], "dtype": "float32"}, {"name": "b10.1749208871883252/concat/axis", "shape": [], "dtype": "int32"}, {"name": "b1.c3.body.00.8365417938204992/transpose/perm", "shape": [4], "dtype": "int32"}, {"name": "b1.c3.body.00.8365417938204992/kernel", "shape": [1, 1, 256, 64], "dtype": "float32"}, {"name": "b1.c3.body.00.8365417938204992/transpose_1/perm", "shape": [4], "dtype": "int32"}, {"name": "b1.c3.body.00.8365417938204992/Reshape", "shape": [1, 64, 1, 1], "dtype": "float32"}, {"name": "0.20046756351022732/concat/axis", "shape": [], "dtype": "int32"}, {"name": "c1.body.00.7963751380351581/transpose/perm", "shape": [4], "dtype": "int32"}, {"name": "c1.body.00.7963751380351581/kernel", "shape": [1, 1, 128, 64], "dtype": "float32"}, {"name": "c1.body.00.7963751380351581/transpose_1/perm", "shape": [4], "dtype": "int32"}, {"name": "c1.body.00.7963751380351581/Reshape", "shape": [1, 64, 1, 1], "dtype": "float32"}, {"name": "b20.837860348277081/concat/axis", "shape": [], "dtype": "int32"}, {"name": "b2.c1.body.00.7205965551871459/transpose/perm", "shape": [4], "dtype": "int32"}, {"name": "b2.c1.body.00.7205965551871459/kernel", "shape": [1, 1, 128, 64], "dtype": "float32"}, {"name": "b2.c1.body.00.7205965551871459/transpose_1/perm", "shape": [4], "dtype": "int32"}, {"name": "b2.c1.body.00.7205965551871459/Reshape", "shape": [1, 64, 1, 1], "dtype": "float32"}, {"name": "b20.30196614123700816/concat/axis", "shape": [], "dtype": "int32"}, {"name": "b2.c2.body.00.02939658995719252/transpose/perm", "shape": [4], "dtype": "int32"}, {"name": "b2.c2.body.00.02939658995719252/kernel", "shape": [1, 1, 192, 64], "dtype": "float32"}, {"name": "b2.c2.body.00.02939658995719252/transpose_1/perm", "shape": [4], "dtype": "int32"}, {"name": "b2.c2.body.00.02939658995719252/Reshape", "shape": [1, 64, 1, 1], "dtype": "float32"}, {"name": "b20.760123869524291/concat/axis", "shape": [], "dtype": "int32"}, {"name": "b2.c3.body.00.9144090871557516/transpose/perm", "shape": [4], "dtype": "int32"}, {"name": "b2.c3.body.00.9144090871557516/kernel", "shape": [1, 1, 256, 64], "dtype": "float32"}, {"name": "b2.c3.body.00.9144090871557516/transpose_1/perm", "shape": [4], "dtype": "int32"}, {"name": "b2.c3.body.00.9144090871557516/Reshape", "shape": [1, 64, 1, 1], "dtype": "float32"}, {"name": "0.745294373906827/concat/axis", "shape": [], "dtype": "int32"}, {"name": "c2.body.00.0564468817451268/transpose/perm", "shape": [4], "dtype": "int32"}, {"name": "c2.body.00.0564468817451268/kernel", "shape": [1, 1, 192, 64], "dtype": "float32"}, {"name": "c2.body.00.0564468817451268/transpose_1/perm", "shape": [4], "dtype": "int32"}, {"name": "c2.body.00.0564468817451268/Reshape", "shape": [1, 64, 1, 1], "dtype": "float32"}, {"name": "b30.6695398700609871/concat/axis", "shape": [], "dtype": "int32"}, {"name": "b3.c1.body.00.45140252646004053/transpose/perm", "shape": [4], "dtype": "int32"}, {"name": "b3.c1.body.00.45140252646004053/kernel", "shape": [1, 1, 128, 64], "dtype": "float32"}, {"name": "b3.c1.body.00.45140252646004053/transpose_1/perm", "shape": [4], "dtype": "int32"}, {"name": "b3.c1.body.00.45140252646004053/Reshape", "shape": [1, 64, 1, 1], "dtype": "float32"}, {"name": "b30.3351955311328446/concat/axis", "shape": [], "dtype": "int32"}, {"name": "b3.c2.body.00.9516376326010488/transpose/perm", "shape": [4], "dtype": "int32"}, {"name": "b3.c2.body.00.9516376326010488/kernel", "shape": [1, 1, 192, 64], "dtype": "float32"}, {"name": "b3.c2.body.00.9516376326010488/transpose_1/perm", "shape": [4], "dtype": "int32"}, {"name": "b3.c2.body.00.9516376326010488/Reshape", "shape": [1, 64, 1, 1], "dtype": "float32"}, {"name": "b30.774364477137635/concat/axis", "shape": [], "dtype": "int32"}, {"name": "b3.c3.body.00.2028034081180673/transpose/perm", "shape": [4], "dtype": "int32"}, {"name": "b3.c3.body.00.2028034081180673/kernel", "shape": [1, 1, 256, 64], "dtype": "float32"}, {"name": "b3.c3.body.00.2028034081180673/transpose_1/perm", "shape": [4], "dtype": "int32"}, {"name": "b3.c3.body.00.2028034081180673/Reshape", "shape": [1, 64, 1, 1], "dtype": "float32"}, {"name": "0.07523256857019289/concat/axis", "shape": [], "dtype": "int32"}, {"name": "c3.body.00.04619909734415062/transpose/perm", "shape": [4], "dtype": "int32"}, {"name": "c3.body.00.04619909734415062/kernel", "shape": [1, 1, 256, 64], "dtype": "float32"}, {"name": "c3.body.00.04619909734415062/transpose_1/perm", "shape": [4], "dtype": "int32"}, {"name": "c3.body.00.04619909734415062/Reshape", "shape": [1, 64, 1, 1], "dtype": "float32"}, {"name": "upsample.up2.body.00.4599539711629431_pad/Pad/paddings", "shape": [4, 2], "dtype": "int32"}, {"name": "upsample.up2.body.00.4599539711629431/transpose/perm", "shape": [4], "dtype": "int32"}, {"name": "upsample.up2.body.00.4599539711629431/kernel", "shape": [3, 3, 64, 256], "dtype": "float32"}, {"name": "upsample.up2.body.00.4599539711629431/transpose_1/perm", "shape": [4], "dtype": "int32"}, {"name": "upsample.up2.body.00.4599539711629431/Reshape", "shape": [1, 256, 1, 1], "dtype": "float32"}, {"name": "lambda_11/strided_slice/stack", "shape": [1], "dtype": "int32"}, {"name": "lambda_11/strided_slice/stack_1", "shape": [1], "dtype": "int32"}, {"name": "lambda_11/strided_slice/stack_2", "shape": [1], "dtype": "int32"}, {"name": "lambda_15/Const", "shape": [], "dtype": "int32"}, {"name": "upsample.up2.body.20.3303673637302097E/ExpandDims/dim", "shape": [], "dtype": "int32"}, {"name": "upsample.up2.body.20.23829645161567448/concat/axis", "shape": [], "dtype": "int32"}, {"name": "exit0.3884727939701078_pad/Pad/paddings", "shape": [4, 2], "dtype": "int32"}, {"name": "exit0.3884727939701078/transpose/perm", "shape": [4], "dtype": "int32"}, {"name": "exit0.3884727939701078/kernel", "shape": [3, 3, 64, 3], "dtype": "float32"}, {"name": "exit0.3884727939701078/transpose_1/perm", "shape": [4], "dtype": "int32"}, {"name": "exit0.3884727939701078/Reshape", "shape": [1, 3, 1, 1], "dtype": "float32"}, {"name": "add_mean.shifter0.8099212878749612/transpose/perm", "shape": [4], "dtype": "int32"}, {"name": "add_mean.shifter0.8099212878749612/kernel", "shape": [1, 1, 3, 3], "dtype": "float32"}, {"name": "add_mean.shifter0.8099212878749612/transpose_1/perm", "shape": [4], "dtype": "int32"}, {"name": "add_mean.shifter0.8099212878749612/Reshape", "shape": [1, 3, 1, 1], "dtype": "float32"}]}]}